Lab 13/ex1-outputs/ex1_model.pth (torch_old, 18413 bytes, 5 tensors)

fc1.weight f4 [64, 1]
-0.95957994 1.1286664 1.0135055 -0.9521798 4.0278773 2.0591676 -1.4247644 2.472432
-0.9638535 1.1558529 1.2719233 1.6565839 0.84110844 -0.913911 -0.9304912 -0.9447568
1.3020635 -2.2226899 0.8469153 -1.3291065 0.8548489 -2.1700892 -0.9479508 1.2684628
0.8841247 1.5012671 0.8859457 -0.9500651 -2.5407653 -0.9433279 -0.96731204 0.88307744
-1.4480318 -0.86979884 0.8374268 -0.9255723 -1.0105532 0.8464215 2.0402834 -0.941589
-1.0208058 -2.2688863 -2.6534815 -2.0958874 2.4190037 -2.253719 -1.3200202 1.4444536
0.85409343 -1.0056533 0.8527219 2.0123017 -0.8870438 1.9881376 2.3580043 -0.9798418
5.601296 -0.9292357 0.854135 2.2517745 4.7688036 2.1776307 -1.1277488 -0.9205734
00000000: 08a7 75bf 2478 903f 8cba 813f 0ec2 73bf
00000010: 5fe4 8040 67c9 0340 ae5e b6bf 533c 1e40
00000020: 1abf 76bf fdf2 933f 62ce a23f f10a d43f
00000030: e252 573f 12f6 69bf ac34 6ebf 95db 71bf
00000040: 04aa a63f 8d40 0ec0 71cf 583f 2920 aabf
00000050: 61d7 5a3f bee2 0ac0 e7ac 72bf fd5c a23f
00000060: ff55 623f 8529 c03f 56cd 623f 7737 73bf
00000070: e69b 22c0 f07d 71bf c3a1 77bf 5d11 623f
00000080: 1b59 b9bf 23ab 5ebf 9a61 563f 4ef2 6cbf
00000090: cf59 81bf 14af 583f 0194 0240 fa0b 71bf
000000a0: c4a9 82bf 6f35 11c0 a4d2 29c0 0523 06c0
000000b0: f5d0 1a40 ef3c 10c0 6cf6 a8bf dbe3 b83f
000000c0: dea5 5a3f 3fb9 80bf fc4b 5a3f 8dc9 0040
000000d0: 4d15 63bf 4b7b fe3f 8be9 1640 ead6 7abf
000000e0: d13d b340 64e2 6dbf 97a8 5a3f 131d 1040
000000f0: 0a9a 9840 4d5e 0b40 135a 90bf b3aa 6bbf

fc1.bias f4 [64]
-3.2132318 4.5512176 3.9706507 -3.0890803 4.5643735 -0.5138005 3.8580654 -0.121682785
-3.1592202 4.707123 5.2680006 7.075949 3.0022986 -2.872406 -2.9860866 -3.061696
5.369352 0.74685466 3.0326607 3.2378266 3.0960665 0.760338 -3.116342 5.264894
3.258666 6.3715196 3.2846584 -3.143254 -0.11295842 -2.9596214 -3.261258 3.2517302
3.9639685 -2.4131675 2.9563236 -2.9185417 -3.4271412 3.0489075 -0.7682549 -3.0552964
-3.4855893 0.34899384 -0.34100175 1.0212635 0.49066478 0.6642614 2.1492019 -6.940123
3.0499146 -3.418403 3.063888 -1.3001046 -2.6043787 -1.3361365 -0.10377726 -3.2749674
7.3918796 -2.9543726 3.084291 -0.14850397 5.875992 -0.5888166 -4.03721 -2.915006
00000000: 97a5 4dc0 93a3 9140 241f 7e40 7eb3 45c0
00000010: 590f 9240 6e88 03bf 8bea 7640 d334 f9bd
00000020: aa30 4ac0 c0a0 9640 7693 a840 2d6e e240
00000030: a925 4040 80d5 37c0 0b1c 3fc0 d4f2 43c0
00000040: bbd1 ab40 de31 3f3f 1d17 4240 8d38 4f40
00000050: f425 4640 83a5 423f 2672 47c0 037a a840
00000060: fc8d 5040 7de3 cb40 d837 5240 132b 49c0
00000070: be56 e7bd 706a 3dc0 73b8 50c0 591c 5040
00000080: a9b1 7d40 5671 1ac0 6834 3d40 63c9 3ac0
00000090: 4856 5bc0 4d21 4340 5aac 44bf fa89 43c0
000000a0: e513 5fc0 52af b23e c897 aebe c3b8 823f
000000b0: 6a38 fb3e 090d 2a3f 868c 0940 7d15 dec0
000000c0: cd31 4340 1dc7 5ac0 be16 4440 d469 a6bf
000000d0: 24ae 26c0 8506 abbf 2c89 d4bd 1199 51c0
000000e0: 478a ec40 7114 3dc0 0665 4540 6d11 18be
000000f0: 2008 bc40 afbc 16bf d330 81c0 758f 3ac0

fc2.weight f4 [64, 64]
-1.5399421 0.48454022 0.4118192 -1.5741948 0.47656074 -1.0339293 0.119313724 -0.8927322
-1.6234779 0.27944285 0.5151444 0.4391779 0.5286011 -1.3214481 -1.400807 -1.4925777
0.55300623 1.1987956 0.42756483 0.3949086 0.5703827 1.1408874 -1.4929506 0.39393517
0.6337347 0.47133166 0.54461247 -1.5154518 0.74542123 -1.3529098 -1.2501196 0.47516564
-0.029440073 -1.0429178 0.678017 -1.5117986 -1.827694 0.38571867 -1.151641 -1.5375884
-1.7397298 1.1477836 0.7438625 1.2626619 -0.7502828 1.1279627 0.7487001 -4.077182
0.6307517 -1.630616 0.53188187 -1.2010285 -1.2579678 -1.1381857 -0.925214 -1.644347
0.25741956 -1.4665794 0.7914971 -0.78080523 0.56362015 -1.0942769 -2.0445106 -1.2807611
1.0301855 -0.47579244 -0.37589565 1.3278667 -0.5657116 0.74991745 -0.2800897 0.8074942
1.172898 -0.3719695 -0.4004274 -0.420364 -0.4401338 1.2319387 1.1018883 1.1967164
-0.5099208 -0.8513673 -0.38218495 -0.60539097 -0.36656585 -0.8938747 1.2306198 -0.34990937
-0.55795413 -0.26000094 -0.40617615 1.1616448 -0.57488906 1.1376339 1.0438327 -0.54642135
-0.03609588 0.9302401 -0.5428318 1.23773 1.3515798 -0.32769325 0.8993942 1.0752702
1.5143063 -0.7518918 -0.5921636 -0.80889666 0.48226 -0.7705428 -0.58786535 4.0537395
-0.5044722 1.281281 -0.4735868 0.97512984 0.9674602 0.94077766 0.75445414 1.2888145
-0.29969785 0.9988745 -0.5796219 0.83826077 -0.40151528 0.7868719 1.793234 1.1618203
0.25932506 -0.41793653 -0.7412433 0.769388 -4.9373174 -1.438297 0.7277487 -1.2087679
0.85198146 -0.6534527 -0.5150295 -0.12686257 -0.50063586 0.66451967 0.46720847 0.46238998
-0.056798402 1.6510216 -0.7735583 0.36779037 -0.29790857 1.4565802 0.26641762 -0.6181245
-0.47896698 -0.4952297 -0.9142712 0.28351605 1.4380699 0.93119407 0.14201692 -0.22578795
0.56871134 1.096844 -0.5918237 0.6848118 0.25643042 -0.90507317 -1.2727021 0.48959574
0.21604145 1.3989145 1.4129928 1.2385395 -2.2290447 1.3346413 0.51811975 -0.43699542
-0.9794042 0.23089439 -0.38879922 -1.078768 1.0232377 -0.96028316 -1.2284306 0.18099408
-5.734235 0.58431023 -0.10769059 -1.2039394 -5.492331 -1.1061391 0.6420228 0.67592466
1.6706092 -0.7364162 -0.57500875 2.0054 -0.2051022 1.2908081 1.7288393 1.2958182
1.8746707 -0.55434805 -0.45833817 -0.44422844 -0.62581956 1.9036146 1.7828124 1.8766862
-0.7956623 -1.7179061 -0.8076238 1.595699 -0.68350214 -1.5220166 1.6317141 -0.44809934
-0.65507627 -0.5644295 -0.49890417 1.7258587 -1.2385746 1.9505112 1.4549485 -0.690081
1.8125418 1.6339813 -0.72371274 1.8450935 1.997333 -0.6059423 1.2170423 1.6963596
1.8764793 -1.6691519 -1.2255738 -1.3965663 1.3873332 -1.5483792 0.9237021 3.5566647
-0.5617756 1.7875448 -0.80966544 1.1172897 1.7946881 1.1434206 1.303612 1.7370245
-0.1737589 1.8913969 -0.6744879 1.1572808 -0.28236324 1.1271099 2.2186968 1.7203283
00000000: d31c c5bf a815 f83e f7d9 d23e 377f c9bf
00000010: c5ff f33e cc57 84bf c15a f43d 198a 64bf
00000020: 20ce cfbf 2213 8f3e 81e0 033f eddb e03e
00000030: 6752 073f 3625 a9bf a54d b3bf c90c bfbf
00000040: d191 0d3f 2272 993f c7e9 da3e 7631 ca3e
00000050: 9a04 123f 9908 923f 0119 bfbf dfb1 c93e
00000060: 703c 223f 6252 f13e b96b 0b3f 53fa c1bf
00000070: edd3 3e3f 262c adbf eb03 a0bf e948 f33e
00000080: 4f2c f1bc 557e 85bf 8692 2d3f 9e82 c1bf
00000090: e1f1 e9bf eb7c c53e f968 93bf b2cf c4bf
000000a0: 77af debf 93ea 923f c66d 3e3f e89e a13f
000000b0: 8912 40bf 1561 903f cfaa 3f3f 4678 82c0
000000c0: f278 213f 06b8 d0bf 6929 083f 4dbb 99bf
000000d0: 1705 a1bf 12b0 91bf d3da 6cbf f679 d2bf
000000e0: 7fcc 833e e0b8 bbbf 8e9f 4a3f dae2 47bf
000000f0: 6949 103f 4411 8cbf 43d9 02c0 fbef a3bf
00000100: 1edd 833f 119b f3be 6575 c0be 89f7 a93f
00000110: 7ad2 10bf 97fa 3f3f eb67 8fbe f1b7 4e3f
00000120: 8621 963f c972 bebe d204 cdbe f339 d7be
00000130: 3859 e1be 2bb0 9d3f ad0a 8d3f 012e 993f
00000140: 2b8a 02bf 35f3 59bf bfad c3be e7fa 1abf
00000150: 85ae bbbe f9d4 64bf f384 9d3f 5227 b3be
00000160: 15d6 0ebf d81e 85be 52f6 cfbe c7b0 943f
00000170: ee2b 13bf fd9d 913f 4f9c 853f 45e2 0bbf
00000180: 46d9 13bd 3724 6e3f 06f7 0abf f06d 9e3f
00000190: 9100 ad3f 69c7 a7be b33e 663f 74a2 893f
000001a0: cad4 c13f fb7b 40bf 0998 17bf da13 4fbf
000001b0: c8ea f63e 4b42 45bf 587e 16bf 3cb8 8140
000001c0: 1725 01bf 0401 a43f f879 f2be 1ca2 793f
000001d0: 79ab 773f ced6 703f e823 413f e0f7 a43f
000001e0: ff71 99be 3db6 7f3f 1a62 14bf 4298 563f
000001f0: 6993 cdbe 7070 493f b188 e53f 87b6 943f
00000200: 41c6 843e c7fb d5be 1fc2 3dbf 9df6 443f
00000210: 81fe 9dc0 1e1a b8bf bd4d 3a3f e8b8 9abf
00000220: 751b 5a3f ad48 27bf f9d8 03bf 43e8 01be
00000230: ac29 00bf f61d 2a3f f335 ef3e 61be ec3e
00000240: 71a5 68bd ad54 d33f eb07 46bf 054f bc3e
00000250: 7987 98be 3871 ba3f e467 883e 683d 1ebf
00000260: 293b f5be bf8e fdbe ad0d 6abf 0429 913e
00000270: ad12 b83f bc62 6e3f e26c 113e f534 67be
00000280: 1197 113f 6265 8c3f c281 17bf d34f 2f3f
00000290: d94a 833e e0b2 67bf e7e7 a2bf 4bac fa3e
000002a0: f839 5d3e a10f b33f f3dc b43f 7688 9e3f
000002b0: aba8 0ec0 87d5 aa3f 7fa3 043f ddbd dfbe
000002c0: 3cba 7abf 946f 6c3e b110 c7be 1215 8abf
000002d0: 74f9 823f 1ed5 75bf 373d 9dbf 8356 393e
000002e0: da7e b7c0 5b95 153f e28c dcbd b01a 9abf
000002f0: 2dc1 afc0 f795 8dbf 9b5b 243f 6609 2d3f
00000300: 86d6 d53f c685 3cbf c633 13bf 7958 0040
00000310: 5006 52be 3339 a53f 9b4a dd3f 5fdd a53f
00000320: 36f5 ef3f c1e9 0dbf 4dab eabe e971 e3be
00000330: b635 20bf a5a9 f33f 3233 e43f 4137 f03f
00000340: 86b0 4bbf 59e4 dbbf 6fc0 4ebf dd3f cc3f
00000350: fff9 2ebf 71d1 c2bf 02dc d03f 476d e5be
00000360: 14b3 27bf 747e 10bf 5e70 ffbe f0e8 dc3f
00000370: 9d89 9ebf 5aaa f93f c13b ba3f 26a9 30bf
00000380: 5f01 e83f 4d26 d13f 3d45 39bf 062c ec3f
00000390: 9ca8 ff3f 091f 1bbf 0bc8 9b3f 5022 d93f
000003a0: 7930 f03f c5a6 d5bf 9adf 9cbf afc2 b2bf
000003b0: 2294 b13f 4a31 c6bf be77 6c3f 65a0 6340
000003c0: 87d0 0fbf 45ce e43f 3c46 4fbf 5903 8f3f
000003d0: 57b8 e53f 9b5b 923f c2dc a63f d256 de3f
000003e0: daed 31be 4b19 f23f 3dab 2cbf c721 943f
000003f0: ea91 90be 2345 903f 21ff 0d40 b833 dc3f

fc2.bias f4 [64]
-0.12140392 0.26243326 0.17750606 0.06580994 -0.27710947 -0.17720278 0.15451784 0.12859531
0.044016745 -1.7126882 -0.38708624 0.19129269 -0.31313664 -0.14901868 -0.27966675 0.11260677
-0.2744437 -0.48450005 -0.34836143 -0.31210047 0.13450654 -0.28919417 -0.41002783 -0.072933674
0.5164524 -2.1094434 -0.48305866 0.6909122 -1.2628001 0.043570463 0.6604997 -1.8464724
-0.23249415 -0.3237615 0.312752 -0.26533207 -0.14554195 -0.36801454 0.24169302 -3.2401636
-0.14771552 -0.31438056 0.3159921 -0.5836591 -0.24682622 -0.44702348 -1.6272569 -1.6222341
-0.33527827 -0.07143523 -0.4960134 -0.20303147 -0.22003773 -2.42842 0.071512625 -1.5798436
0.13889039 -0.25873226 0.6131331 0.18501899 -1.2813963 -0.2526656 -0.47003046 0.11319271
00000000: 9ea2 f8bd a75d 863e 26c4 353e 5dc7 863d
00000010: 4be1 8dbe a574 35be ed39 1e3e 7dae 033e
00000020: e74a 343d 5e39 dbbf 2b30 c6be 3be2 433e
00000030: 7253 a0be 5a98 18be 7b30 8fbe 619e e63d
00000040: e283 8cbe 6410 f8be 6e5c b2be a2cb 9fbe
00000050: 15bc 093e 4211 94be 2bef d1be 405e 95bd
00000060: 3936 043f 1f01 07c0 7753 f7be 9fdf 303f
00000070: 6fa3 a1bf f176 323d 8216 293f 3559 ecbf
00000080: f212 6ebe 11c4 a5be 0821 a03e 9bd9 87be
00000090: f308 15be 676c bcbe 607e 773e d75e 4fc0
000000a0: bd42 17be 7df6 a0be b7c9 a13e af6a 15bf
000000b0: 03c0 7cbe 43e0 e4be f449 d0bf 5ea5 cfbf
000000c0: 98a9 abbe a24c 92bd 78f5 fdbe 7be7 4fbe
000000d0: 9251 61be 3c6b 1bc0 3675 923d 5138 cabf
000000e0: 4839 0e3e 8e78 84be 4af6 1c3f 9e75 3d3e
000000f0: cb04 a4bf 635d 81be d5a7 f0be 94d1 e73d

fc3.weight f4 [1, 64]
-1.0911711 0.99712527 -1.3939064 1.0442282 -1.5353101 -1.1801128 1.0385311 0.98343724
1.0760845 0.66640425 -1.4400065 0.98933864 -1.3156482 -1.171643 -1.120386 1.13687
-1.4291737 -2.3688028 -1.9288669 -2.7507312 1.0523176 1.8490556 1.5519742 -1.3101395
0.9318248 1.2545404 2.2328482 0.901923 0.38816392 1.1373639 0.9550762 0.64385015
-0.9779174 -1.6294223 1.12002 -1.2413919 1.2813069 -1.3907726 0.93951637 2.615612
1.3197702 -1.3218393 0.99725497 1.5562342 -1.0393407 1.6444548 0.28525266 0.4870811
-1.4278903 -1.0154474 2.2576647 -1.2027372 -1.8262169 1.8050452 1.1050361 1.2010306
1.1122354 -1.2982754 0.9443102 0.9428809 -3.3294933 -1.4118845 1.6196702 0.97616285
00000000: 7fab 8bbf 9a43 7f3f 866b b2bf 45a9 853f
00000010: 0b85 c4bf f00d 97bf 96ee 843f 8bc2 7b3f
00000020: 23bd 893f 7899 2a3f 2252 b8bf 4c45 7d3f
00000030: 2967 a8bf 66f8 95bf cf68 8fbf f584 913f
00000040: 2aef b6bf 779a 17c0 1ce5 f6bf fb0b 30c0
00000050: 58b2 863f dbad ec3f 17a7 c63f a7b2 a7bf
00000060: 128c 6e3f c894 a03f fce6 0e40 6de4 663f
00000070: 6cbd c63e 2495 913f e07f 743f 5dd3 243f
00000080: cb58 7abf e990 d0bf d15c 8f3f eee5 9ebf
00000090: dd01 a43f d604 b2bf 2584 703f 3066 2740
000000a0: 3bee a83f 0832 a9bf 1a4c 7f3f af32 c73f
000000b0: 1e09 85bf 7f7d d23f a30c 923e b262 f93e
000000c0: 1cc5 b6bf 2efa 81bf 947d 1040 4bf3 99bf
000000d0: 7ac1 e9bf b90b e73f d371 8d3f 5fbb 993f
000000e0: bb5d 8e3f e32d a6bf 50be 713f a560 713f
000000f0: 6b16 55c0 a2b8 b4bf 5a51 cf3f cfe5 793f
