Lab 13/ex1-outputs/model_1000,0.1.pth (torch_old, 18413 bytes, 5 tensors)

fc1.weight f4 [64, 1]
-1.2775915 -1.413184 -1.4245759 -1.0426878 0.8533849 0.97604966 -1.0387408 0.96303123
15.246093 0.51078445 -1.3728951 1.1917545 0.9140875 -1.1613901 -1.2176305 -1.2220198
-4.209305 1.131136 1.0502853 10.823123 1.0623965 0.20652215 -1.1816188 -1.616474
10.373815 -1.245452 0.21917306 -1.2276943 -1.2179428 -1.0562052 -1.2727187 1.050619
1.034641 -1.062014 1.1549848 -1.1076195 -1.1480184 0.84342074 1.1409734 -1.2245685
-1.263841 -1.1533247 -1.5427362 -1.0185071 25.01627 -1.1758757 0.50484496 1.1442969
1.0384743 1.0096769 1.2153211 1.1557157 -1.106607 1.3720288 0.8766605 -1.120628
0.16568208 -1.1506159 1.2142256 1.2253737 0.2808189 0.8244376 0.8973151 -2.1989183
00000000: 1e88 a3bf 37e3 b4bf 8158 b6bf cb76 85bf
00000010: 6f77 5a3f 64de 793f 75f5 84bf 3789 763f
00000020: ffef 7341 c5c2 023f 07bb afbf 698b 983f
00000030: a301 6a3f 6ea8 94bf 51db 9bbf 256b 9cbf
00000040: a0b2 86c0 10c9 903f c06f 863f 832b 2d41
00000050: 9cfc 873f 8b7a 533e 493f 97bf 9fe8 cebf
00000060: 25fb 2541 f96a 9fbf e76e 603e 1625 9dbf
00000070: 8de5 9bbf bb31 87bf 72e8 a2bf af7a 863f
00000080: 1e6f 843f 13f0 87bf 8bd6 933f 7ac6 8dbf
00000090: 44f2 92bf 6cea 573f 6b0b 923f a9be 9cbf
000000a0: 8bc5 a1bf 25a0 93bf 6178 c5bf 715e 82bf
000000b0: 5221 c841 1883 96bf 853d 013f 5278 923f
000000c0: baec 843f 183d 813f a48f 9b3f 7eee 933f
000000d0: 4ca5 8dbf a49e af3f d36c 603f bd70 8fbf
000000e0: 90a8 293e 6247 93bf bf6b 9b3f 0cd9 9c3f
000000f0: 7fc7 8f3e 580e 533f 71b6 653f 14bb 0cc0

fc1.bias f4 [64]
-5.426206 2.4401839 2.1450949 -4.3064494 3.2043946 -4.3034587 -4.2234936 -4.2407804
15.6121 0.61567837 2.7049782 4.970808 3.5492966 -4.8729577 -5.1418033 -5.161763
5.204251 4.6668134 4.263587 14.35248 4.32528 -2.3387194 -4.967425 1.7361974
-2.7848785 2.6635802 -1.7082981 -5.1914296 2.9830117 -4.369244 -5.4200053 4.2513475
4.1799507 -4.3878736 4.8022113 -4.608085 -4.8086214 3.1601791 -4.3131385 -5.1747527
-5.360714 3.5415258 1.9389925 3.9686425 -9.296799 3.3583412 0.035944514 4.7383747
4.2073593 -4.4123936 5.1066437 -5.070572 -4.610842 -4.7933617 -3.8921385 -4.6782217
-2.4851258 -4.817251 5.100963 -3.0287426 -2.0520153 -4.5510406 -4.053708 -3.3801644
00000000: 7ba3 adc0 f92b 1c40 3c49 0940 6fce 89c0
00000010: cd14 4d40 efb5 89c0 dc26 87c0 79b4 87c0
00000020: 29cb 7941 199d 1d3f 5d1e 2d40 dc10 9f40
00000030: ad27 6340 45ef 9bc0 a789 a4c0 2a2d a5c0
00000040: 3989 a640 8956 9540 4e6f 8840 c2a3 6541
00000050: b268 8a40 94ad 15c0 25f5 9ec0 b73b de3f
00000060: 733b 32c0 1978 2a40 83a9 dabf 3120 a6c0
00000070: aae9 3e40 d9d0 8bc0 af70 adc0 0a0b 8840
00000080: 28c2 8540 7669 8cc0 b7ab 9940 6f75 93c0
00000090: 3ae0 99c0 6040 4a40 3b05 8ac0 9397 a5c0
000000a0: f88a abc0 5ca8 6240 e830 f83f 3dfe 7d40
000000b0: b0bf 14c1 10ef 5640 8e3a 133d c4a0 9740
000000c0: b0a2 8640 5432 8dc0 a069 a340 2042 a2c0
000000d0: 058c 93c0 3863 99c0 cc18 79c0 feb3 95c0
000000e0: 4d0c 1fc0 ec26 9ac0 173b a340 ebd6 41c0
000000f0: 3854 03c0 20a2 91c0 fab7 81c0 9d54 58c0

fc2.weight f4 [64, 64]
-0.7123603 -0.65742195 -0.69067895 -0.71913785 -0.716478 -0.61532176 -0.5317443 -0.6729531
-0.6845096 -0.72670484 -0.61132014 -0.68439853 -0.6375006 -0.54807246 -0.6103108 -0.57046163
-0.7307777 -0.7034046 -0.71756166 -0.6584836 -0.6631213 -0.68028986 -0.6051181 -0.65310377
-0.54780203 -0.6230794 -0.48292497 -0.70795155 -0.62191904 -0.5828157 -0.48746833 -0.72329444
-0.5463995 -0.5715227 -0.48301172 -0.72585094 -0.7147692 -0.6690781 -0.6394695 -0.6461997
-0.6315455 -0.5151271 -0.5108789 -0.5748958 -0.65419286 -0.56378806 -0.5150079 -0.5749074
-0.4824631 -0.56852704 -0.71168905 -0.5879153 -0.6678266 -0.5066312 -0.716751 -0.6303102
-0.64348584 -0.6810991 -0.48490188 -0.541917 -0.5365745 -0.7107641 -0.59161663 -0.49702752
0.45192066 0.34882486 0.39387628 0.5387789 0.30790725 0.33255932 0.35443678 0.5348207
0.33597565 0.33503568 0.3869571 0.3693544 0.34206778 0.6044322 0.47998193 0.41999987
0.41154927 0.2741954 0.3711079 0.3334946 0.41209063 0.19676466 0.5277641 0.36641997
0.2121498 0.48547912 0.24552602 0.57278526 0.37266663 0.3775259 0.578135 0.28592297
0.5317251 0.43294388 0.19903061 0.59045523 0.29358396 0.39325777 0.42604595 0.3475924
0.47334442 0.27975455 0.32094365 0.31005344 0.29520145 0.28604865 0.40584445 0.47993878
0.21099702 0.33541146 0.2961692 0.5719356 0.40950686 0.51226676 0.4358416 0.3862763
0.29946506 0.33119935 0.19188662 0.49471396 0.41309065 0.44492742 0.45865062 0.47877887
-0.57291114 -0.5676452 -0.658078 -0.6499883 -0.6931341 -0.7036699 -0.5077758 -0.6601075
-0.5289876 -0.5739047 -0.60678333 -0.7266765 -0.55994606 -0.64579225 -0.69099 -0.60257286
-0.6858625 -0.5311154 -0.6642824 -0.74348575 -0.60489243 -0.53548056 -0.6582622 -0.52230495
-0.66559374 -0.62066525 -0.53235036 -0.6998737 -0.5815459 -0.72922057 -0.6164211 -0.5048629
-0.53099716 -0.5687802 -0.5533621 -0.65932065 -0.6527067 -0.5990199 -0.7246349 -0.6362228
-0.61868757 -0.71770525 -0.7378771 -0.58711165 -0.6902195 -0.5467458 -0.6606103 -0.7136191
-0.7314866 -0.62728256 -0.7124444 -0.7069122 -0.57581687 -0.572389 -0.59735405 -0.7129933
-0.61647224 -0.7170203 -0.55199546 -0.51415867 -0.66347814 -0.594168 -0.68668133 -0.68900317
0.64492875 0.38095042 0.5360021 0.600312 0.3872771 0.5452777 0.37218648 0.58429015
0.4063243 0.49074253 0.58522284 0.57711476 0.5194376 0.6452231 0.5978266 0.5973016
0.4082553 0.5227508 0.31231382 0.5126773 0.460097 0.49313438 0.4737755 0.57409847
0.49323446 0.3682427 0.5839754 0.6420856 0.5684815 0.50893897 0.56068677 0.4659311
0.43031225 0.40919462 0.38681942 0.55159605 0.56546754 0.50707096 0.50641644 0.42303458
0.49042666 0.37619057 0.5436915 0.42871922 0.61826825 0.3428788 0.5868449 0.45659694
0.5331428 0.44991842 0.31435594 0.5431645 0.52383363 0.57139254 0.581603 0.4345697
0.5405017 0.60730183 0.43908638 0.42582607 0.46227413 0.42465606 0.38787982 0.4066475
00000000: 3f5d 36bf ce4c 28bf 56d0 30bf 6b19 38bf
00000010: 1a6b 37bf ba85 1dbf 6520 08bf a846 2cbf
00000020: 053c 2fbf 5409 3abf 7a7f 1cbf be34 2fbf
00000030: 3d33 23bf 7a4e 0cbf 543d 1cbf c609 12bf
00000040: 3f14 3bbf 5312 34bf 1fb2 37bf 6292 28bf
00000050: 51c2 29bf 7a27 2ebf 05e9 1abf cf31 27bf
00000060: c13c 0cbf 2282 1fbf f141 f7be 503c 35bf
00000070: 1636 1fbf 6933 15bf 7395 f9be d329 39bf
00000080: d6e0 0bbf 504f 12bf 504d f7be 5ed1 39bf
00000090: 1dfb 36bf b448 2bbf 46b4 23bf 586d 25bf
000000a0: f7ac 21bf 5fdf 03bf f6c8 02bf 5f2c 13bf
000000b0: 2f79 27bf 6a54 10bf 8fd7 03bf 222d 13bf
000000c0: 6705 f7be fd8a 11bf 4131 36bf 9e81 16bf
000000d0: aff6 2abf 95b2 01bf fe7c 37bf 025c 21bf
000000e0: 7dbb 24bf 835c 2ebf 0f45 f8be 13bb 0abf
000000f0: f25c 09bf a3f4 35bf 3074 17bf 647a febe
00000100: 2562 e73e 2c99 b23e 27aa c93e 6aed 093f
00000110: 05a6 9d3e 3745 aa3e bd78 b53e 02ea 083f
00000120: 0005 ac3e cc89 ab3e 3e1f c63e 051c bd3e
00000130: 8223 af3e 12bc 1a3f 31c0 f53e 390a d73e
00000140: 96b6 d23e 5763 8c3e db01 be3e cebf aa3e
00000150: 8bfd d23e ad7c 493e 8c1b 073f 669b bb3e
00000160: cc3d 593e b890 f83e 2c6b 7b3e 0ea2 123f
00000170: 29ce be3e 134b c13e a800 143f 7f64 923e
00000180: 231f 083f d2aa dd3e aece 4b3e 1328 173f
00000190: a350 963e 1559 c93e b222 da3e a2f7 b13e
000001a0: 335a f23e fd3b 8f3e ba52 a43e 53bf 9e3e
000001b0: a524 973e f874 923e d8ca cf3e 89ba f53e
000001c0: 9a0f 583e 0dbb ab3e 7da3 973e 5f6a 123f
000001d0: e2aa d13e ea23 033f a126 df3e 02c6 c53e
000001e0: 7c53 993e f692 a93e ed7d 443e 264b fd3e
000001f0: 9e80 d33e 87cd e33e 41d4 ea3e 8122 f53e
00000200: 4eaa 12bf 3251 11bf cd77 28bf a265 26bf
00000210: 3d71 31bf b623 34bf 98fd 01bf cefc 28bf
00000220: bb6b 07bf 6beb 12bf 2756 1bbf 7907 3abf
00000230: a058 0fbf a452 25bf b8e4 30bf 3742 1abf
00000240: af94 2fbf 2ef7 07bf 690e 2abf 1555 3ebf
00000250: 3bda 1abf 4115 09bf df83 28bf c7b5 05bf
00000260: 5a64 2abf ebe3 1ebf 1d48 08bf ec2a 33bf
00000270: 31e0 14bf 33ae 3abf c6cd 1dbf b23e 01bf
00000280: 6eef 07bf 949b 11bf 23a9 0dbf 3dc9 28bf
00000290: c917 27bf 5e59 19bf ac81 39bf 7fdf 22bf
000002a0: 4f62 1ebf 88bb 37bf 83e5 3cbf f34c 16bf
000002b0: 3ab2 30bf 88f7 0bbf c21d 29bf beaf 36bf
000002c0: b542 3bbf 9795 20bf c262 36bf 33f8 34bf
000002d0: bc68 13bf 1688 12bf 32ec 18bf bb86 36bf
000002e0: 20d1 1dbf a48e 37bf 934f 0dbf e79f 03bf
000002f0: b4d9 29bf 651b 18bf 59ca 2fbf 8362 30bf
00000300: 0d1a 253f ef0b c33e 6f37 093f 0cae 193f
00000310: 2f49 c63e 5297 0b3f 3a8f be3e 0a94 153f
00000320: bd09 d03e 9b42 fb3e 2ad1 153f cbbd 133f
00000330: ddf9 043f 572d 253f 2a0b 193f c2e8 183f
00000340: d706 d13e ffd2 053f 99e7 9f3e d23e 033f
00000350: d591 eb3e 1c7c fc3e b492 f23e 1ef8 123f
00000360: 3a89 fc3e 4f8a bc3e 697f 153f b95f 243f
00000370: 0188 113f d349 023f 2b89 0f3f 858e ee3e
00000380: e351 dc3e f581 d13e 320d c63e 6635 0d3f
00000390: 7bc2 103f 67cf 013f 82a4 013f fd97 d83e
000003a0: 3419 fb3e 0d9c c03e 5e2f 0b3f 1681 db3e
000003b0: d446 1e3f cf8d af3e 783b 163f 13c7 e93e
000003c0: 0c7c 083f b55b e63e 43f3 a03e d40c 0b3f
000003d0: f619 063f c846 123f efe3 143f eb7f de3e
000003e0: 525e 0a3f 2278 1b3f eecf e03e e005 da3e
000003f0: 32af ec3e 856c d93e 2f98 c63e 1a34 d03e

fc2.bias f4 [64]
-0.50403714 0.4429846 -0.5140694 0.48251805 -0.53693205 -0.5593028 0.50139475 0.34002703
0.36140713 -0.74203795 -0.6153874 0.3751285 -0.55362755 -0.5826083 -0.67867315 0.49672428
-0.5704718 -0.62543875 -0.7344437 -0.61094195 -0.75141877 0.5305146 0.04011288 -0.5063073
0.31025875 -0.6203559 -0.5912734 0.5258544 -0.71978676 0.40230018 0.4363801 -0.9345937
-0.7030572 -0.5660156 0.54299986 -0.6622326 0.3853146 -0.61046755 0.66710556 -0.82767814
0.3419182 -0.6243862 0.5731464 0.007078304 -0.627002 -0.7132946 -0.86130846 -0.7692816
-0.6773014 -0.5039387 -0.55064666 -0.5983147 -0.6708822 -0.6878414 0.36748916 -0.8006624
0.45350596 -0.5992527 0.37053198 0.57656896 -0.7295505 -0.7002285 -0.6055055 0.5069244
00000000: 9408 01bf e1ce e23e 0d9a 03bf 9b0c f73e
00000010: 6174 09bf 782e 0fbf 685b 003f 0618 ae3e
00000020: 5b0a b93e 33f6 3dbf 078a 1dbf d810 c03e
00000030: 89ba 0dbf d125 15bf 86bd 2dbf a552 fe3e
00000040: 710a 12bf c11c 20bf 8104 3cbf b166 1cbf
00000050: fb5c 40bf cecf 073f 674d 243d 5b9d 01bf
00000060: 3cda 9e3e a5cf 1ebf b25d 17bf 659e 063f
00000070: f243 38bf 4afa cd3e 366d df3e 8841 6fbf
00000080: 8ffb 33bf 66e6 10bf 0a02 0b3f 1388 29bf
00000090: f547 c53e 9a47 1cbf 6ec7 2a3f b7e2 53bf
000000a0: e70f af3e c6d7 1fbf b9b9 123f 1ef1 e73b
000000b0: 3483 20bf 7a9a 36bf b67e 5cbf a4ef 44bf
000000c0: a063 2dbf 2002 01bf 2ef7 0cbf 272b 19bf
000000d0: f0be 2bbf 6016 30bf 8a27 bc3e 36f8 4cbf
000000e0: ef31 e83e a068 19bf 5eb6 bd3e 069a 133f
000000f0: d2c3 3abf 2d42 33bf 6902 1bbf ccc5 013f

fc3.weight f4 [1, 64]
0.48020133 -0.43720248 0.48751345 -0.3892823 0.48616484 0.4435214 -0.39135367 -0.45218474
-0.42010072 0.54531527 0.50308746 -0.4595482 0.47821152 0.49476853 0.48697644 -0.34957665
0.48259255 0.4904367 0.50531155 0.5194843 -0.07451519 -0.31751484 8.18494 0.5247019
-0.40967628 0.5330555 0.5317843 -0.41348344 0.56208116 -0.43453467 -0.4309681 0.55733556
0.50700814 0.5134732 -0.36365852 0.45860422 -0.46077472 0.4336356 -0.27688512 0.53982604
-0.473745 0.47344917 -0.39143696 7.5626087 0.49249095 7.781215 0.5392155 0.5689368
0.48948458 0.45818064 0.5324578 0.50939876 0.5266795 0.53657 -0.36361852 0.5485245
-0.37599754 0.4563457 8.18501 -0.2883971 0.52317125 0.52253044 -0.19299431 -0.31589
00000000: f3dc f53e 01d9 dfbe 5d9b f93e 0250 c7be
00000010: 99ea f83e 3d15 e33e 825f c8be c284 e7be
00000020: 7117 d7be c899 0b3f 57ca 003f e749 ebbe
00000030: 24d8 f43e 4d52 fd3e fa54 f93e b6fb b2be
00000040: 5f16 f73e 851a fb3e 195c 013f ecfc 043f
00000050: 6c9b 98bd 4e91 a2be 84f5 0241 dd52 063f
00000060: 17c1 d1be 5376 083f 0423 083f 1ab4 d3be
00000070: 8de4 0f3f 547b debe daa7 dcbe 8bad 0e3f
00000080: 49cb 013f fb72 033f 7331 babe 2cce ea3e
00000090: aaea ebbe 7c05 de3e e3c3 8dbe 0a32 0a3f
000000a0: b48e f2be ee67 f23e 6d6a c8be e400 f240
000000b0: c627 fc3e b7ff f840 070a 0a3f d8a5 113f
000000c0: b99d fa3e a796 ea3e 284f 083f f567 023f
000000d0: 78d4 063f a75c 093f 352c babe 1a6c 0c3f
000000e0: c082 c0be 25a6 e93e cdf5 0241 c9a8 93be
000000f0: 8dee 053f 8ec4 053f 4da0 45be 56bc a1be
