Lab 13/ex1-outputs/model_1000,1.pth (torch_old, 18413 bytes, 5 tensors)

fc1.weight f4 [64, 1]
00000000: 18d4 b240 9992 bac0 e5f1 b7c0 9020 dcc0
00000010: 250d b1c0 2988 b4c0 f930 cdc0 4b1a df40
00000020: d545 ba40 4e74 bf40 aa8a bac0 decc bc40
00000030: 0cfe d040 08c8 a440 d40b d2c0 acb5 c6c0
00000040: 5f9d b7c0 a479 ac40 e05e a8c0 ea81 bd40
00000050: 5b4a abc0 f36a a740 f17e c8c0 a666 bbc0
00000060: 2fcc b3c0 cac5 bbc0 cc47 b7c0 4366 ac40
00000070: 378a dfc0 70c4 dcc0 0c77 dac0 d14f b4c0
00000080: b361 b240 fc9d b540 f1ad db40 a4a5 a540
00000090: 96e0 c0c0 0174 cc40 0dc6 abc0 6d95 b740
000000a0: 4006 c1c0 7c75 d6c0 1b48 ddc0 6d6a dec0
000000b0: 7eba b8c0 862c dec0 8bd0 b440 12f8 ba40
000000c0: 26ce d440 de6a bd40 49f1 d540 b46d de40
000000d0: de0a ad40 7416 dd40 1596 db40 9cc6 c3c0
000000e0: 8b78 cbc0 db1e cec0 2b68 dc40 571b d640
000000f0: b54b c340 0cf1 da40 e959 c240 7d92 a640
5.5883904 -5.830395 -5.748278 -6.878975 -5.5328546 -5.641621 -6.412228 6.9719596
5.8210244 5.9829473 -5.829427 5.900008 6.5310116 5.149418 -6.563944 -6.2096767
-5.7379603 5.3898487 -5.2615814 5.9221087 -5.3528266 5.2318053 -6.265496 -5.8562803
-5.6186748 -5.867894 -5.7275143 5.387483 -6.985622 -6.898979 -6.827032 -5.634743
5.574426 5.675535 6.864983 5.17647 -6.0274153 6.3891606 -5.367926 5.7369905
-6.032013 -6.7018414 -6.915052 -6.9504914 -5.772765 -6.942935 5.650457 5.842782
6.6501646 5.9192953 6.6857038 6.9508915 5.4075766 6.908991 6.8620706 -6.1179943
-6.3584647 -6.4412665 6.887716 6.6908374 6.1029916 6.8419247 6.0734754 5.205382

fc1.bias f4 [64]
00000000: 51cb dbc0 2999 ca40 e9eb c940 bf84 b740
00000010: 0670 c440 f04b cec0 22bf afc0 7fd6 c7c0
00000020: d5a7 c8c0 db17 b8c0 ce52 c740 cd0a df40
00000030: d481 aec0 bf04 cdc0 832a af40 d94b a940
00000040: 2ad7 dc40 ccbb de40 68e9 acc0 7115 b2c0
00000050: 89ba a6c0 9558 a5c0 9cb1 a440 f5b1 c740
00000060: cd1c d140 ee35 c940 1d6a c440 c6af a940
00000070: ed21 c940 7f49 bd40 f62b e0c0 2f8d d240
00000080: cdad cf40 14b0 be40 5254 d440 3b35 cbc0
00000090: f8a8 a240 eee8 b5c0 1809 ad40 c3fb d2c0
000000a0: 9fd6 a040 1665 d440 0316 c040 add4 db40
000000b0: fe37 d5c0 f316 d740 4057 b4c0 e69b d340
000000c0: 472e cf40 40a7 dcc0 b6fe d740 4e0b e0c0
000000d0: 4e23 c2c0 7183 ddc0 7e5f c1c0 a0e7 a240
000000e0: 81fb aac0 bad1 b340 59f9 db40 defc c0c0
000000f0: 1b75 bec0 eecc cec0 8470 cbc0 63e9 b540
-6.868569 6.3311963 6.3100476 5.7349544 6.1386747 -6.4467697 -5.4920816 -6.2449336
-6.2704873 -5.752912 6.228858 6.9700685 -5.453348 -6.4068294 5.4739394 5.2905087
6.901265 6.9604244 -5.403492 -5.5651174 -5.2102704 -5.167063 5.146681 6.2404733
6.5347657 6.287833 6.1379533 5.3027067 6.2853913 5.9152217 -7.0053663 6.5797343
6.489966 5.958994 6.635293 -6.350248 5.083126 -5.684684 5.40736 -6.5932326
5.026199 6.6373396 6.002687 6.8697114 -6.663085 6.7215514 -5.6356506 6.6127806
6.474399 -6.8954163 6.7498426 -7.00138 -6.0668097 -6.922295 -6.0429068 5.0907745
-5.343201 5.6193514 6.874188 -6.0308676 -5.951795 -6.462516 -6.357485 5.6847396

fc2.weight f4 [64, 64]
00000000: 99b0 c3c0 4dcf c1c0 89de c2c0 55d3 c3c0
00000010: 9fb5 c3c0 9495 c0c0 d4c8 bdc0 7076 c2c0
00000020: 95c0 c2c0 8518 c4c0 0355 c0c0 73b4 c2c0
00000030: a530 c1c0 eb68 bec0 6362 c0c0 6117 bfc0
00000040: cc26 c4c0 3e39 c3c0 69b7 c3c0 f7e2 c1c0
00000050: 13f1 c1c0 eb78 c2c0 f836 c0c0 eeab c1c0
00000060: c148 bec0 9eb5 c0c0 d63b bcc0 8a88 c3c0
00000070: 8f9f c0c0 5570 bfc0 3a88 bcc0 88e7 c3c0
00000080: 0748 bec0 4217 bfc0 5c30 bcc0 b917 c4c0
00000090: c4a9 c3c0 783a c2c0 4b60 c1c0 5788 c1c0
000000a0: 1703 c1c0 882c bdc0 371c bdc0 6808 bfc0
000000b0: dfc3 c1c0 32b3 bec0 3d4a bdc0 5735 bfc0
000000c0: fd33 bcc0 950d bfc0 497c c3c0 9ed4 bfc0
000000d0: f131 c2c0 a039 bdc0 ddd5 c3c0 a1fb c0c0
000000e0: 925d c1c0 df9f c2c0 a632 bcc0 ad3b bec0
000000f0: 1c02 bec0 4db4 c3c0 afc8 bfc0 63be bcc0
00000100: 7d4a be40 2b4e be40 ef29 c040 62ef c340
00000110: 792f be40 9e23 bd40 b5b2 bf40 e3d5 c240
00000120: 8763 bd40 3650 bd40 0780 bf40 9d72 be40
00000130: afe4 bf40 0107 c440 5d94 c040 92b7 bf40
00000140: a769 c140 0580 be40 bdb7 c140 8145 be40
00000150: af0b c440 eb1f bd40 9a4c c240 a5b9 be40
00000160: 1df5 bc40 8b8d c240 28dc bc40 f6a7 c240
00000170: deb8 bf40 94cc bf40 9aab c040 41f6 bd40
00000180: e700 c440 8d7e c140 4555 bd40 29d9 c340
00000190: d9ad bd40 2440 c040 3e25 bf40 95d7 bc40
000001a0: a236 c340 013b be40 707c bc40 a5e8 c040
000001b0: 3d9d bc40 c85c bf40 6520 c040 f9be c140
000001c0: 36a7 bc40 ed62 bd40 b707 c140 ff07 c040
000001d0: 6f9a bf40 6d62 be40 9816 c140 1785 bf40
000001e0: 0522 be40 77c7 bc40 70df be40 e239 c340
000001f0: 3ee2 c040 cbae be40 e70f c240 ef68 c140
00000200: 6a01 bfc0 625d bec0 e839 c1c0 ed31 c1c0
00000210: a758 c2c0 7207 c3c0 ad75 bcc0 6fb6 c1c0
00000220: 185e bdc0 78c0 bec0 3b9d bfc0 748c c3c0
00000230: 5e08 bec0 d140 c1c0 0fa6 c2c0 e8b9 bfc0
00000240: a118 c2c0 1bf2 bcc0 d342 c1c0 f621 c4c0
00000250: e742 bfc0 4a12 bdc0 1d95 c1c0 c8eb bcc0
00000260: 6760 c1c0 c211 c0c0 773a bdc0 5604 c3c0
00000270: b3ad bec0 84a2 c3c0 da8d c0c0 aa3e bcc0
00000280: d738 bdc0 0685 bec0 be9b bdc0 3ba9 c1c0
00000290: fd27 c1c0 756a bfc0 91c8 c3c0 afdc c0c0
000002a0: ba17 c0c0 1be8 c2c0 5fd7 c3c0 7687 bec0
000002b0: 947a c2c0 6152 bdc0 4f75 c1c0 6f24 c3c0
000002c0: c36c c3c0 7186 c0c0 d7a2 c2c0 2f8d c3c0
000002d0: 8bd7 bec0 c938 bfc0 e196 bfc0 d52d c3c0
000002e0: 73f0 bfc0 0764 c3c0 a862 bdc0 e0e6 bcc0
000002f0: 1998 c1c0 f5b6 bfc0 1f60 c2c0 e081 c2c0
00000300: 6eca c240 e244 bd40 a588 c240 0cd2 c240
00000310: b822 be40 d047 c140 a5c0 bc40 912e c240
00000320: 9bcd bc40 6cf8 bf40 99cf c340 4405 c340
00000330: 2206 c340 152b c340 fae8 c140 8572 c240
00000340: 1098 be40 de3a c340 710b bd40 3fc0 c040
00000350: d84f c240 b742 c240 f7f6 bd40 375e c340
00000360: 68fd c140 0fc1 bc40 a90c c440 62e4 c240
00000370: 0ba7 c340 427a c040 d30e bf40 4afe c040
00000380: 1faf be40 7e54 bd40 5c2d c040 1253 c040
00000390: ea8d c240 97aa c140 c383 bf40 a6c9 bc40
000003a0: 550e c040 925a be40 31df c140 0b2f c140
000003b0: 5df6 c340 86ed bd40 1419 c340 1a1d bf40
000003c0: 4f1c c440 cc4b be40 1f3c be40 4cc1 be40
000003d0: ca4f c040 21d2 bf40 2bdb c240 cfae bd40
000003e0: ca35 c240 89bd c240 4ffc c240 8f07 be40
000003f0: 4c50 bf40 4f64 bc40 7cb7 bc40 a153 bc40
-6.1153073 -6.0565553 -6.089665 -6.1195474 -6.1159205 -6.018259 -5.930765 -6.0769577
-6.0860085 -6.127993 -6.0103774 -6.0845275 -6.037188 -5.9503074 -6.01201 -5.971604
-6.129736 -6.1007376 -6.116139 -6.0589557 -6.060678 -6.0772605 -6.00671 -6.0522375
-5.946381 -6.02217 -5.882304 -6.1104174 -6.0194774 -5.9824624 -5.891629 -6.122013
-5.9462924 -5.971589 -5.8809032 -6.127896 -6.1144733 -6.0696373 -6.0430045 -6.047893
-6.031627 -5.911686 -5.909694 -5.969776 -6.05516 -5.9593744 -5.9153123 -5.975261
-5.881346 -5.970408 -6.1089215 -5.9947042 -6.0685964 -5.9132843 -6.1198564 -6.0307164
-6.042672 -6.0820155 -5.8811827 -5.9447846 -5.9377575 -6.1157594 -5.9932475 -5.8982406
5.946593 5.947042 6.005119 6.1229715 5.943295 5.910598 5.990565 6.088609
5.9183993 5.9160414 5.9843783 5.951491 5.9966655 6.125855 6.0181108 5.9911585
6.044147 5.9531274 6.053679 5.9459844 6.126426 5.910146 6.071851 5.9601617
5.904921 6.079778 5.9018745 6.083003 5.991317 5.993723 6.0209475 5.9363103
6.12511 6.046698 5.916659 6.120259 5.9274716 6.0078297 5.973296 5.901316
6.100419 5.9447026 5.89019 6.028399 5.894194 5.980076 6.0039544 6.054562
5.8954115 5.918326 6.0321918 6.000976 5.9876018 5.949515 6.034008 5.9849963
5.941653 5.8993487 5.964775 6.100816 6.0276175 5.958837 6.064441 6.0440593
-5.9689226 -5.9488993 -6.0383186 -6.0373445 -6.073322 -6.094659 -5.8893647 -6.0535197
-5.917736 -5.9609947 -5.987943 -6.110895 -5.9385214 -6.039162 -6.082771 -5.9914436
-6.0655065 -5.904554 -6.0394073 -6.1291456 -5.976917 -5.9084826 -6.0494523 -5.903782
-6.043018 -6.0021677 -5.913387 -6.0942793 -5.9587035 -6.1135883 -6.017316 -5.8826494
-5.9131885 -5.953738 -5.9252615 -6.051908 -6.0361314 -5.9817452 -6.118233 -6.026939
-6.0028963 -6.090833 -6.1200404 -5.9540358 -6.077463 -5.916306 -6.04557 -6.0981975
-6.1070266 -6.0164113 -6.082378 -6.1109843 -5.9638114 -5.975682 -5.987168 -6.0993447
-5.9981017 -6.1059604 -5.918293 -5.903183 -6.0498166 -5.9910836 -6.0742335 -6.078354
6.0872107 5.9146585 6.0791802 6.0881405 5.941738 6.040016 5.898516 6.0681844
5.9000983 5.999075 6.1190915 6.094393 6.0944986 6.099009 6.0596895 6.0764794
5.9560623 6.100936 5.9076467 6.0234675 6.0722466 6.070644 5.936397 6.105251
6.0621834 5.8985667 6.1265454 6.0903788 6.114141 6.014924 5.9705596 6.031041
5.958877 5.916564 6.005537 6.0101404 6.0798235 6.052074 5.984834 5.8996153
6.0017495 5.948556 6.058495 6.0369925 6.1238236 5.9352446 6.0968113 5.9723024
6.1284556 5.9467525 5.944839 5.961096 6.00974 5.9944005 6.089254 5.927589
6.069066 6.0856366 6.0932994 5.9384227 5.978552 5.8872447 5.897398 5.8852086

fc2.bias f4 [64]
00000000: 00f1 bcc0 1305 c140 35c5 bcc0 ace6 bf40
00000010: aae9 bdc0 c422 bfc0 cd5b c040 9b09 bd40
00000020: 0c4f bd40 a07c bdc0 dd09 c0c0 70c9 be40
00000030: 32b0 bdc0 b830 bfc0 c86b c2c0 ad26 bf40
00000040: 6810 bfc0 98ac c0c0 e9da c3c0 95e2 bec0
00000050: 18ed bd40 4462 c040 ea83 c240 735c bcc0
00000060: a480 bc40 b0ab bdc0 55c4 bcc0 4f77 c340
00000070: 1345 bcc0 4ab8 bf40 8a15 c040 26ea c1c0
00000080: 32e1 c2c0 b03d bdc0 7f29 c140 6d47 c2c0
00000090: e1d0 be40 9ce8 c0c0 8918 c440 d741 c3c0
000000a0: e320 bd40 33cc c0c0 7cb5 c240 83cc be40
000000b0: 6148 c0c0 be82 c340 f3fa c3c0 6e2a bec0
000000c0: ee6e c2c0 1526 bdc0 5f62 bdc0 9d76 bec0
000000d0: 968f c0c0 b9a1 c0c0 ab78 bc40 57f1 c3c0
000000e0: e60e c040 b847 c0c0 24c4 be40 bd59 c140
000000f0: 4587 c3c0 5336 c2c0 973f c240 9b9a bf40
-5.904419 6.0318694 -5.899073 5.996908 -5.9347734 -5.972994 6.011206 5.9074225
5.9158993 -5.921463 -6.001204 5.9620895 -5.927758 -5.974697 -6.075657 5.973471
-5.9707527 -6.0210686 -6.1204724 -5.965159 5.935192 6.0119953 6.078603 -5.8862853
5.890703 -5.927208 -5.8989663 6.108314 -5.883432 5.991246 6.0026293 -6.0598326
-6.0899897 -5.91378 6.0363154 -6.071219 5.962998 -6.0283947 6.127995 -6.101787
5.9102645 -6.0249267 6.084654 5.962465 -6.0088353 6.1097097 -6.1243834 -5.9426794
-6.076041 -5.9108987 -5.918258 -5.951979 -6.0175276 -6.0197415 5.88973 -6.1232104
6.0018187 -6.0087547 5.961443 6.0422044 -6.1102624 -6.0691314 6.0702624 5.9876227

fc3.weight f4 [1, 64]
00000000: 3216 bd40 2bf8 9a3d 58a3 bd40 54f2 ce3d
00000010: 244a bd40 e052 bc40 c2d3 e53d 8b98 853d
00000020: ba8a a23d b380 bf40 b3cd bd40 53ce 5d3d
00000030: 288e bd40 249a bd40 944d bd40 50ea 173e
00000040: 162b bd40 f05b bd40 3edb bd40 9a6b be40
00000050: dda1 5bbc bba8 203e 4bed fb3c 8f5e be40
00000060: f314 7e3d f1ef be40 5ae5 be40 8624 a23d
00000070: 58c3 bf40 8b60 4c3d c1c9 6b3d 4cd9 bf40
00000080: 93e9 bd40 3756 be40 beaa 0a3e 6a61 bc40
00000090: 70cb 2d3d 222d bc40 cec8 473e 5036 bf40
000000a0: 2b0c ee3c 82fe bc40 2a00 ed3d e823 9f3d
000000b0: 76a7 bd40 b9e8 443c 1536 bf40 56dc bf40
000000c0: 6c3f bd40 4887 bc40 8e96 be40 d944 be40
000000d0: 3ea8 be40 55e7 be40 97c5 073e 3a39 bf40
000000e0: aa26 053e f07a bc40 aa86 6d3d dd58 3f3e
000000f0: 1650 be40 f270 be40 270f 753c fef8 253e
5.9089594 0.075668655 5.9261894 0.10104814 5.9153004 5.8851166 0.1122203 0.06523236
0.07936616 5.9844604 5.93136 0.054151844 5.923603 5.925066 5.91572 0.14835477
5.9115095 5.917473 5.933013 5.950635 -0.01340529 0.15689366 0.030752799 5.949043
0.062031697 5.9667897 5.965497 0.079171225 5.9925957 0.049896758 0.057565454 5.9952755
5.9347625 5.9480243 0.13541695 5.8868914 0.04243034 5.8805094 0.19510195 5.97538
0.029058537 5.906068 0.11572297 0.077705204 5.926692 0.012018376 5.975352 5.9956465
5.913992 5.891514 5.9558783 5.9459043 5.9580374 5.965739 0.13258968 5.9757357
0.1300303 5.890007 0.057989754 0.18686242 5.947276 5.9512873 0.014957226 0.16208264
