Lab 13/ex1-outputs/model_10000,0.01.pth (torch_old, 18413 bytes, 5 tensors)

fc1.weight f4 [64, 1]
00000000: 22f0 b0bf 066a c53f 089d fc40 0984 c5c0
00000010: 628e a93f 268a 8a40 def5 34c0 b1b4 8640
00000020: dfb2 0ec1 4505 ac3f 1f7c e33f a509 df3f
00000030: e819 953f 9611 aebf 0627 acbf 2a06 b2bf
00000040: 4dd7 0840 ec05 33c0 34cb 943f 929f 0c41
00000050: fd8d 953f 4656 89c0 a4ac b1bf ce53 0642
00000060: 1234 a13f c940 e43f d332 b33f e978 adbf
00000070: b683 eac1 fa26 9cc1 f6c5 aebf e043 9c3f
00000080: 8831 07c0 9708 e7c1 bb68 923f 276e afbf
00000090: fd3e c7bf 16fe a73f 47be 6240 0aff b3bf
000000a0: 73ba c7bf be72 8fc0 8c73 2bc2 5941 24c0
000000b0: bf37 5b40 f510 70c0 d6db 58c0 c2fa de3f
000000c0: 2476 983f f127 d0bf 14ef 923f c2cd 3a40
000000d0: 9d04 c5c0 d0a3 3a40 0810 9e40 d55b bbbf
000000e0: 2f17 2441 7fd5 3cc0 aa27 943f 58ab a140
000000f0: f843 3b42 f618 6040 9a25 4c40 7b56 b3bf
-1.3823283 1.5422981 7.894169 -6.1723676 1.3246577 4.329364 -2.8275065 4.209557
-8.91867 1.3439108 1.7772254 1.7424818 1.1648531 -1.3599117 -1.3449409 -1.3908131
2.138141 -2.7972364 1.1624513 8.788958 1.1683956 -4.2917814 -1.3880811 33.58184
1.2594016 1.7832271 1.3999885 -1.3552524 -29.314312 -19.519032 -1.3654163 1.2208214
-2.1123981 -28.879194 1.1438211 -1.3705491 -1.5566097 1.3124416 3.5428636 -1.4062207
-1.5603775 -4.4827566 -42.86284 -2.5664885 3.4252775 -3.751035 -3.3884177 1.7420275
1.1911054 -1.6262189 1.1479211 2.9188085 -6.156813 2.9162483 4.939457 -1.46374
10.25566 -2.9505308 1.1574605 5.052166 46.816376 3.5015235 3.189795 -1.4010767

fc1.bias f4 [64]
00000000: e8aa 9ac0 b7f1 d140 2635 3741 ee18 3ac1
00000010: 4161 b140 b334 e8c0 e4e0 0541 ac7b e0c0
00000020: 4304 32c1 6ab8 af40 1a06 fd40 dac8 f140
00000030: 070e 9040 ba0f 96c0 06d7 93c0 8501 9ac0
00000040: 461e 1d41 d6d8 0341 757e 8f40 16b7 4941
00000050: f625 9140 f564 ef40 bb6a 9ac0 ef72 0340
00000060: 6833 a040 5989 fe40 1581 bc40 bae8 95c0
00000070: aa13 2141 6a32 39c1 5d41 98c0 de38 9a40
00000080: 02ff 0041 2da5 88c1 cd42 8c40 c864 96c0
00000090: 969d b2c0 b566 ac40 bebd cfc0 39cf 9cc0
000000a0: 015c b3c0 c334 fb40 fcae 9d41 d133 e740
000000b0: 110c f9c0 4eef cd40 d691 7141 9134 f340
000000c0: 1d81 9540 f7d3 bcc0 bb3e 8d40 c736 f3c0
000000d0: 785d 0ec1 051d e1c0 c2de 07c1 58c0 a5c0
000000e0: 10e6 5b41 4a8c c0c0 d955 8f40 e62a 0cc1
000000f0: f53e 1fc1 5703 d0c0 31a5 61c1 47ee 9bc0
-4.8333626 6.560756 11.450476 -11.631086 5.543122 -7.256433 8.367405 -7.0150967
-11.12604 5.4912615 7.906995 7.555768 4.5017123 -4.6894197 -4.619998 -4.8126855
9.819891 8.240438 4.4841866 12.607199 4.535884 7.481074 -4.8255286 2.05389
5.006275 7.954266 5.890757 -4.684659 10.067301 -11.574808 -4.757979 4.819442
8.062258 -17.080652 4.3831544 -4.6998024 -5.5817366 5.3875375 -6.491912 -4.9002957
-5.604981 7.8501906 19.710442 7.2250752 -7.782723 6.435462 15.0981045 7.600167
4.672011 -5.9008746 4.4139075 -7.6004367 -8.8978195 -7.0347924 -8.491884 -5.1797295
13.743668 -6.017125 4.4792295 -8.760473 -9.95287 -6.5004077 -14.10283 -4.8728366

fc2.weight f4 [64, 64]
00000000: 49fa 41c1 e17a 2d40 14bd 983f 49d2 20c1
00000010: f0e7 7540 1a9f 48be 2d51 29bf 8a2a 52be
00000020: 520f e6bf eb14 8540 abda c33f e74b cc3f
00000030: 2a74 ba40 f052 41c1 17ac 43c1 9603 53c1
00000040: 0191 be3e 5894 25bf a6f0 bb40 ad67 463f
00000050: 9b96 b540 a823 24bf 9499 4ec1 aebe e03e
00000060: 694f a040 d3e1 bf3f 0bd4 6c40 5931 40c1
00000070: f09d 23bf 9792 b7bf bc17 30c1 c1e4 9f40
00000080: 4281 36bf 08fe acbf 2a5c c740 158f 48c1
00000090: 7f22 48c1 91a5 8840 5dd9 8abe 723d 4dc1
000000a0: 43be 44c1 ff91 04bf a043 23bf fd53 fdbe
000000b0: e1b4 adbe 20d5 06bf 8fb4 45bf 5987 dd3f
000000c0: f93d b740 45d0 37c1 ebe7 b940 0964 a7be
000000d0: b939 05c0 8a93 65be 7d1e 13be e8c2 4dc1
000000e0: 0795 3e3f 1273 90c1 df29 bb40 32ea df3c
000000f0: e53a e93e abe0 9bbe f593 e83c b150 40c1
00000100: 6441 8a40 aa64 47bf 25d4 82be d9fc 2240
00000110: 6082 01bf 3d90 0940 9e44 33c0 fb5b 1940
00000120: e8af 0d40 3fe8 74bf cc5a adbe a7f0 34bf
00000130: 2bf4 a3bf 2763 a740 6ef1 9c40 2c1d ac40
00000140: c6f5 49be 65d1 1ec0 001c a3bf a713 99be
00000150: 823c 9dbf 5519 9bbf ea4c a040 2569 0ebd
00000160: 60b5 a6bf 9e15 2fbe 44fc 26bf ccdd 9240
00000170: 5a1e 033f 69ae 0140 b07d 7840 9140 a4bf
00000180: 50b8 82c0 ee17 f83f a13f bebf 78a4 ad40
00000190: 6690 ba40 503a 44bf 9588 0340 4ed9 a840
000001a0: 1930 b940 659e 88bf da47 513f a188 05c0
000001b0: edcf 1540 553a 8abf 37ac 2ec0 8835 03bf
000001c0: b3b1 a9bf 8729 b540 0917 afbf 75f6 1f40
000001d0: 4d14 0240 84b4 1240 ec65 da3f 0e35 ac40
000001e0: 78c0 c5be a381 7a40 c808 babf e892 f23f
000001f0: 31d1 863e 67c5 0440 1ca5 a441 f965 ae40
00000200: 70ca 35bf d6c0 383f 0452 ae3e 0dc6 aebe
00000210: 4292 8e3e 744f 07c0 2fdf be40 e8f9 06c0
00000220: 9aff 4cbe 6111 de3e 165f 173f 7109 243f
00000230: bf48 4d3f ecfe 12bf cff5 2bbf 87c2 1ebf
00000240: 6b87 3e3f 6e6e a240 a13c 3b3f 6d8c 4a3e
00000250: 722a 573f b074 c23f dfbb 40bf 282e b03e
00000260: bd15 333f 079d c63e 4435 0d3f 7f1f 41bf
00000270: 5f83 0c3f 6d00 a0be fd24 43bf 5669 5d3f
00000280: 4d98 3541 bd4a 9ebd 2bd5 5e3f c450 01bf
00000290: 5cd5 3cbf c76c 103f b60b 34c0 8dc0 23bf
000002a0: 69a2 3cbf 2982 843f 393b 8e3e 0318 8540
000002b0: 9979 50c0 5da6 ea3f 0160 6941 edb4 183f
000002c0: 6270 1e3f 3066 43bf bd16 413f ae38 6ac0
000002d0: 8366 20be d445 4ec0 927d 6cbf c0c2 50bf
000002e0: 2402 963e 2d3b ffbe dae1 773f 0479 67bf
000002f0: a7d2 16bc 922a 28c0 aff8 b7c1 c6d8 0ebf
00000300: e098 5e40 af6f 21c0 42d6 7dc0 1137 913f
00000310: c2dd cbbf 721c 4a41 1fd4 28c0 0bec 5441
00000320: bd37 813f fb17 05c0 9829 1ac0 c148 2ec0
00000330: 78ed 02c0 3fa6 5b40 c733 5640 b32c 6440
00000340: f3fc 47c0 b35e 16c0 4c8e 12c0 e33f 83c0
00000350: 101a 0fc0 8445 78c0 f9b6 5840 8a47 51c0
00000360: 133d 0dc0 d4a2 21c0 fde7 dbbf 4e1b 5940
00000370: 8427 acbe ea13 703f 5570 4d40 61cd 0bc0
00000380: aad7 c9bf 8b4e 343f d845 10c0 44c6 5640
00000390: 4891 8740 a2ee eabf 338b 7241 d7e9 5b40
000003a0: 4a75 8440 6e0b 88c0 e261 35be 4163 3bc0
000003b0: e5ce 7c41 f74b 6cc0 0002 913e 0f2d 31c0
000003c0: 6e8f fdbf fd97 8b40 b63c 19c0 0700 3041
000003d0: 76ac 663f 8fea 4741 98e1 4941 3437 6c40
000003e0: 4e63 85c0 1c7e bb3f 44d8 14c0 9cea 5d41
000003f0: 582f 37c0 9701 7841 8e8e d83f 2cc1 5540
-12.123605 2.710625 1.1932702 -10.051339 3.8422813 -0.19591942 -0.6613949 -0.2052404
-1.7973425 4.1588035 1.5301107 1.5960664 5.82668 -12.082748 -12.229514 -13.188375
0.37220004 -0.6467948 5.873126 0.77501947 5.6746345 -0.6411691 -12.912495 0.43895477
5.0096936 1.4990791 3.700442 -12.012048 -0.6391287 -1.4341611 -11.005795 4.996674
-0.7129098 -1.3515024 6.2300005 -12.534932 -12.508422 4.2702107 -0.2711896 -12.827501
-12.296451 -0.5178527 -0.6377506 -0.4947814 -0.33927062 -0.5266895 -0.77228636 1.730693
5.726315 -11.488347 5.8095603 -0.32693508 -2.081648 -0.22419563 -0.14367099 -12.860085
0.7444615 -18.056187 5.848861 0.027333353 0.45552745 -0.30444846 0.028390864 -12.0197
4.3204823 -0.77887976 -0.25552478 2.5466826 -0.5058956 2.1494286 -2.801063 2.396239
2.2138615 -0.9566688 -0.33858335 -0.70679706 -1.2808889 5.2308536 4.9044714 5.378561
-0.19722661 -2.4815304 -1.274292 -0.29897806 -1.228409 -1.2117106 5.009389 -0.034768242
-1.3024101 -0.1709809 -0.65228677 4.589575 0.5121819 2.0262702 3.8826714 -1.2832204
-4.084999 1.9382303 -1.4863168 5.4263268 5.830127 -0.7665148 2.0552113 5.2765265
5.7871213 -1.0673338 0.8175026 -2.0864642 2.3408158 -1.0799052 -2.7292612 -0.5125356
-1.3257354 5.6613193 -1.3678905 2.4994175 2.032489 2.2922678 1.7062354 5.3814764
-0.38623405 3.9141624 -1.453393 1.8951082 0.26331475 2.0745485 20.58062 5.449948
-0.7101202 0.72169244 0.34046948 -0.34135476 0.2784596 -2.1142244 5.964744 -2.109003
-0.2001938 0.43372634 0.59129465 0.64076906 0.80189127 -0.5742023 -0.6717195 -0.62015575
0.7442538 5.07598 0.7313939 0.1978013 0.8404914 1.519186 -0.7528667 0.34410214
0.69955045 0.38791677 0.551594 -0.75438684 0.54887956 -0.31250325 -0.76228315 0.86488855
11.349683 -0.07729099 0.8704402 -0.50513864 -0.7376306 0.5641598 -2.8132148 -0.63965684
-0.7368532 1.0352222 0.27779558 4.159181 -3.2574217 1.833202 14.585938 0.5965107
0.6189023 -0.763278 0.7542532 -3.6597095 -0.15664105 -3.223012 -0.92379105 -0.81547165
0.29298508 -0.49849835 0.96829 -0.9041903 -0.009205497 -2.6275983 -22.996428 -0.5579952
3.4780807 -2.5224416 -3.9662023 1.134493 -1.592705 12.631945 -2.6379468 13.307628
1.0095135 -2.0795887 -2.4087887 -2.7231905 -2.045744 3.4320219 3.3469102 3.5652282
-3.1248138 -2.34953 -2.289935 -4.1015487 -2.2359657 -3.879243 3.3861678 -3.2699914
-2.2068527 -2.5255632 -1.7180172 3.3922915 -0.33623898 0.93780386 3.2099812 -2.1844103
-1.576894 0.7043235 -2.254263 3.3558512 4.2364845 -1.8354075 15.158984 3.4361475
4.1393175 -4.251395 -0.1771312 -2.927933 15.800511 -3.6921365 0.28321838 -2.7683752
-1.9809396 4.3623033 -2.3943305 11.000007 0.90106905 12.494765 12.617577 3.6908693
-4.168372 1.464786 -2.3256998 13.869778 -2.8622646 15.500388 1.6918504 3.3399153

fc2.bias f4 [64]
00000000: 5df7 f3be 5eb0 5c3f 4561 8b3e a34c 3c3f
00000010: 10d6 493f 5826 523f 4692 b53f f4b0 cd3f
00000020: 00cb 4c3f 9bb9 1cbf caec a9be 1522 233f
00000030: 289d 9fbe 1c40 06bf aea9 c7be dfa3 b4bf
00000040: 2783 36bf b0cd d63e 8495 093e f085 8d3f
00000050: 9576 51bf 0a55 1c3f bec0 913f fca7 3c3f
00000060: ded2 d7be 9463 e0be 063a 5d3f bee6 a1be
00000070: 6cb1 3cbf cab9 633f b3c0 19be 800a 52bf
00000080: ab12 a3be 9eed 433d 6272 c73e b9af 8fbe
00000090: 52e3 853f 417d 4dbf 6aa2 f83e 9b54 84bd
000000a0: c071 a83f e6d5 09bf 1db3 3d3f 9257 673f
000000b0: a11e a53e c2a3 c93f 9ea8 24bf 081b 59bf
000000c0: 1cbc b7bd c81f 61bf 51c6 813f 06ad 953d
000000d0: cfed 53be 47a7 493f 115e 003f b7ed fcbe
000000e0: 7d10 8e3f 1fa9 10bf a9ed a4be 6e8f 10be
000000f0: d4eb dc3e 8537 5cbf 81ec 18bf 6f13 1e3f
-0.4764966 0.86206615 0.27222648 0.7355444 0.7884226 0.8208976 1.4185264 1.6069627
0.79997253 -0.6122071 -0.33188468 0.6372388 -0.31174588 -0.52441573 -0.38996643 -1.411251
-0.7129387 0.41953802 0.13435942 1.10565 -0.81821567 0.6106726 1.1386945 0.73693824
-0.42153066 -0.43825972 0.8641666 -0.31621355 -0.73708224 0.88955367 -0.15014915 -0.8204727
-0.3185018 0.04783403 0.38954455 -0.28063753 1.0459998 -0.8026925 0.48561412 -0.0646145
1.3159714 -0.5384201 0.7410143 0.90367997 0.3224993 1.57531 -0.6431979 -0.8480687
-0.08971426 -0.8793912 1.0138646 0.07308392 -0.20696186 0.7877087 0.50143534 -0.49400112
1.1098782 -0.5650806 -0.3221257 -0.14117214 0.43148673 -0.86022216 -0.59735876 0.61748403

fc3.weight f4 [1, 64]
00000000: 4382 e7bf 4d7d af3f dbd5 1240 9782 9240
00000010: 7711 fac0 ed77 6dc1 23f6 e440 5dce 0141
00000020: 82d7 0241 3e1b c240 20bd 10c1 badc 9840
00000030: 9b72 b2bd e27a c7bf 1d3e 0c3f 07c6 6741
00000040: 1b55 2841 97fe 94c0 4a83 60c1 bda1 14c1
00000050: 6d49 e03f 1bd1 1340 241d 0641 1172 edc0
00000060: 38d2 c43f f106 683f 6ba7 dd40 4cce 973f
00000070: 9119 693f 54f2 0241 8e08 8e3f 88eb db3d
00000080: d852 a6c1 72c8 da40 4e80 1540 46a4 b53f
00000090: a2f8 0d41 6076 18c0 6856 0440 4567 0141
000000a0: 6258 c540 d4e3 c0c0 94f0 47c0 5d24 9840
000000b0: 2ecd 85c0 0c5d 2841 5491 3241 70ec ab40
000000c0: 622c 3bc1 0e69 1d41 3950 cc40 460e dcc0
000000d0: a7d5 3ac1 8154 8840 f274 bb40 fb11 b940
000000e0: 0c96 a140 4be2 a7c0 b8a7 f13f 0239 e340
000000f0: f08b 61c1 42aa 69c1 13a1 1540 3d9d c03d
-1.8086628 1.3710114 2.2943027 4.578441 -7.814632 -14.841779 7.155046 8.112882
8.177614 6.0658255 -9.046173 4.776944 -0.087132655 -1.5584376 0.5478228 14.4858465
10.520778 -4.656078 -14.032053 -9.289487 1.7522408 2.3096378 8.382114 -7.420174
1.5376654 0.9063559 6.926687 1.1859832 0.91054636 8.184162 1.1096361 0.107382834
-20.790451 6.8369684 2.335956 1.4190757 8.873201 -2.382225 2.0677738 8.087712
6.167039 -6.027811 -3.1240587 4.754439 -4.1812963 10.5227165 11.1604805 5.372612
-11.698336 9.838148 6.384793 -6.8767424 -11.677161 4.2603154 5.8580256 5.783445
5.0495663 -5.2463737 1.8879309 7.100709 -14.096664 -14.604067 2.3379562 0.09404991
