Lab 13/ex1-outputs/model_50000,0.01.pth (torch_old, 18413 bytes, 5 tensors)

fc1.weight f4 [64, 1]
0	0xbfd1c118	-1.6387053
1	0x3fe03f5f	1.7519339
2	0x40b61d4e	5.691077
3	0xc142c2fb	-12.172603
4	0x3fc130c5	1.5093008
5	0x4096d68e	4.7136908
6	0xc05ef668	-3.4837894
7	0x42009ea6	32.15493
8	0xc13b24b6	-11.696463
9	0x3fc40649	1.5314418
10	0x4000c433	2.011975
11	0x3ffefef7	1.9921559
12	0x3fab4e56	1.3383281
13	0xbfccc4cc	-1.5997558
14	0xbfcadcfc	-1.5848689
15	0xbfd17717	-1.6364468
16	0x401c0c5d	2.4382546
17	0xc067e02b	-3.6230571
18	0x3faa87f3	1.3322738
19	0x4152a734	13.165821
20	0x3fab4e16	1.3383205
21	0xc09ee543	-4.965486
22	0xbfd227d8	-1.6418409
23	0x4357f291	215.94753
24	0x3fb8a8b2	1.4426482
25	0x4001237d	2.017791
26	0x3fcbdd28	1.5926867
27	0xbfcd3fad	-1.6035057
28	0xc267520c	-57.830124
29	0xc1af2cf4	-21.89695
30	0xbfd06907	-1.6282052
31	0x3fb3a20e	1.403383
32	0xc04f0515	-3.2346852
33	0xc20137ca	-32.30448
34	0x3fa7e63d	1.3117138
35	0xbfce403b	-1.6113352
36	0xbfe230fc	-1.7671199
37	0x3fc00b85	1.5003515
38	0x408c2bd9	4.3803525
39	0xbfd2a077	-1.645522
40	0xbfe3c523	-1.7794536
41	0xc0a58098	-5.1719475
42	0xc36e7017	-238.43785
43	0xc05f024d	-3.4845154
44	0x40ad0fc9	5.408177
45	0xc08ba305	-4.36365
46	0xc056049b	-3.344031
47	0x3ffe1925	1.9851424
48	0x3fae8c7d	1.3636624
49	0xbfe8461a	-1.8146393
50	0x3fa875d2	1.3160956
51	0x40831864	4.0967274
52	0xc106ef87	-8.433478
53	0x405e6d1f	3.4754102
54	0x40afb830	5.491234
55	0xbfda930e	-1.7076128
56	0x411a617a	9.648798
57	0xc0877e5b	-4.2341743
58	0x3fa959b1	1.3230497
59	0x40b49998	5.643749
60	0x4298b305	76.34965
61	0x408b53fb	4.3540015
62	0x406ddac9	3.7164786
63	0xbfd173b1	-1.6363431

fc1.bias f4 [64]
0	0xc0ab11a3	-5.345903
1	0x40e45798	7.1356926
2	0x416cbede	14.796598
3	0xc1bf659b	-23.924612
4	0x40c356f6	6.1043653
5	0xc0f4b4ef	-7.6470866
6	0x411f4bc5	9.955998
7	0xc170e85c	-15.056728
8	0xc1587e20	-13.530792
9	0x40c36569	6.106129
10	0x41060332	8.37578
11	0x410235c3	8.138125
12	0x40a507fd	5.157225
13	0xc0a884ca	-5.2662096
14	0xc0a5f777	-5.186458
15	0xc0ab952b	-5.361959
16	0x4122e3fa	10.180658
17	0x411847bc	9.517513
18	0x40a411d7	5.1271777
19	0x41adc72d	21.722254
20	0x40a56f34	5.1698246
21	0x41095879	8.5841
22	0xc0ab264a	-5.348424
23	0x40eb4502	7.352174
24	0x40b4f5aa	5.6549883
25	0x410696b2	8.411791
26	0x40cebe44	6.460726
27	0xc0a77be5	-5.233874
28	0x41a71fa2	20.890446
29	0xc1520aec	-13.127666
30	0xc0a8dd62	-5.2770243
31	0x40af30a8	5.4746895
32	0x410139b3	8.076587
33	0xc197b881	-18.96509
34	0x40a109e7	5.032459
35	0xc0a8d751	-5.2762837
36	0xc0c19149	-6.048985
37	0x40bfce6f	5.9939494
38	0xc0e4954b	-7.1432242
39	0xc0ae5e11	-5.4489827
40	0xc0c16f68	-6.0448494
41	0x410f97b1	8.974534
42	0x42f5200d	122.5626
43	0x40f9221d	7.785414
44	0xc0fe4b8f	-7.9467235
45	0x40e7aff5	7.240229
46	0x41776897	15.463035
47	0x41025946	8.146795
48	0x40a9b96e	5.3038855
49	0xc0cb9510	-6.361946
50	0x40a1901c	5.0488415
51	0xc1147216	-9.277853
52	0xc137e0c1	-11.492372
53	0xc12e5e88	-10.898079
54	0xc113c39e	-9.235258
55	0xc0b53a8e	-5.663398
56	0x417809ed	15.502423
57	0xc1244076	-10.265738
58	0x40a330fb	5.099729
59	0xc1189906	-9.537359
60	0xc180ceae	-16.100918
61	0xc0e47d8b	-7.140325
62	0xc176ea10	-15.432144
63	0xc0ae40f1	-5.4454274

fc2.weight f4 [64, 64]
0	0xc20c38ba	-35.055397
1	0x40ab3554	5.35026
2	0x413be26f	11.742782
3	0xc19a1072	-19.25803
4	0x40f5c01e	7.679702
5	0xbe24f856	-0.16110358
6	0xbfb3c5c7	-1.4044732
7	0x3dcc4948	0.09974915
8	0xc023879c	-2.555152
9	0x41068f6f	8.410018
10	0x402c92ed	2.6964676
11	0x404ce3a3	3.2013938
12	0x413dbc31	11.858445
13	0xc20a4152	-34.56379
14	0xc20a81b5	-34.626667
15	0xc212bda5	-36.6852
16	0x3eed1931	0.46308282
17	0xbfb135f5	-1.3844591
18	0x413f7937	11.967093
19	0x4226ae1a	41.67002
20	0x4138cfeb	11.550761
21	0xbfb0abbf	-1.3802413
22	0xc2112e6f	-36.295345
23	0x3ee0beae	0.43895477
24	0x41212f07	10.073981
25	0x4027e1fd	2.6231682
26	0x40e40f91	7.1269
27	0xc209b3aa	-34.425453
28	0xbfb0d845	-1.3816
29	0xc00bcea0	-2.1844864
30	0xc204cb63	-33.19862
31	0x412531c0	10.324646
32	0xbfba9b7e	-1.4578702
33	0xc0068da0	-2.102394
34	0x41475874	12.459095
35	0xc20cb316	-35.17489
36	0xc21479a7	-37.1188
37	0x4108b91a	8.545191
38	0xbe40ec60	-0.1884017
39	0xc210c824	-36.19545
40	0xc213beb3	-36.93623
41	0xbfa10089	-1.2578288
42	0xbfb0fc0d	-1.382692
43	0xbf9de44a	-1.2335293
44	0xbea29df1	-0.31761125
45	0xbfa21c45	-1.2664877
46	0xbfc2f7c1	-1.5231858
47	0x4050dea9	3.26359
48	0x4135ea3c	11.369686
49	0xc20fc105	-35.938496
50	0x413e8615	11.907735
51	0xbe888df5	-0.26670805
52	0xc082c8c2	-4.0870066
53	0x3cf29f5f	0.02961701
54	0xbe11b337	-0.14228521
55	0xc2142162	-37.0326
56	0x421693bc	37.64427
57	0xc254c763	-53.194714
58	0x413bf4b8	11.747246
59	0x3ce6385f	0.028103052
60	0x3ee93ae5	0.45552745
61	0xbe610f60	-0.21978521
62	0x3ce94696	0.02847604
63	0xc20b3bc9	-34.808384
64	0x41c31d86	24.389416
65	0xc02e1865	-2.720239
66	0xc1e357e9	-28.417925
67	0x3e84a3da	0.2590626
68	0xc03073a3	-2.757058
69	0x40a05243	5.0100417
70	0xc0a3ef53	-5.1229644
71	0x40a83328	5.2562447
72	0xbe96a991	-0.29426244
73	0xc056a755	-3.3539631
74	0xbfe65eee	-1.799772
75	0xc0180f43	-2.3759315
76	0xc08568ce	-4.1690435
77	0x41c726ad	24.893885
78	0x41c0d9de	24.10638
79	0x41cdd970	25.73117
80	0xbfa21c65	-1.2664915
81	0xc09a160f	-4.8151927
82	0xc085cb70	-4.1810837
83	0x401f68f9	2.490782
84	0xc082b58a	-4.0846605
85	0xc06dfd22	-3.718575
86	0x41ca0dfa	25.256824
87	0x40354110	2.832096
88	0xc07cf76c	-3.9526014
89	0xbfce25a7	-1.610524
90	0xc0335b77	-2.8024576
91	0x41c01582	24.010502
92	0xbfff7192	-1.9956534
93	0xbef6c59d	-0.48197642
94	0x41bada0a	23.356464
95	0xc0802326	-4.0042906
96	0xc0efa36e	-7.4887
97	0xbf11eccf	-0.57001966
98	0xc08dc198	-4.429882
99	0x41c948e2	25.160587
100	0x41f2902f	30.320402
101	0xc04a83f2	-3.1643033
102	0x409d4bb6	4.915492
103	0x41d0c951	26.098299
104	0x41f2bdff	30.342772
105	0xc064c474	-3.5744905
106	0xbfd86564	-1.6905942
107	0xc09038b5	-4.5069222
108	0x40a4e594	5.1530247
109	0xc0657bbd	-3.5856774
110	0xc0daf028	-6.841816
111	0xc008e251	-2.1388133
112	0xc083698d	-4.1066346
113	0x41fd4ff2	31.664036
114	0xc08999c6	-4.300021
115	0x40ab8d7a	5.36102
116	0xbeeeff68	-0.46679235
117	0x40bb6763	5.8563704
118	0x40923223	4.56862
119	0x41dcdc10	27.607452
120	0x401e792e	2.4761462
121	0x41ee58a4	29.793282
122	0xc08ae2c4	-4.3401814
123	0x40983f2a	4.7577105
124	0x404856ca	3.1302972
125	0x409de75e	4.934493
126	0x42ae1b41	87.05323
127	0x41d14a98	26.161423
128	0x3df736ba	0.12070985
129	0x3f6a0617	0.9141554
130	0x3f086e16	0.5329298
131	0xbeaec60d	-0.34135476
132	0x3ef0eb41	0.47054484
133	0xbff628c6	-1.9231193
134	0x42301229	44.017735
135	0xbff5826f	-1.918043
136	0xbe4cff9a	-0.2001938
137	0x3f20390f	0.62587065
138	0x3f48a520	0.7837696
139	0x3f555dcb	0.8334624
140	0x3f7e2582	0.9927598
141	0x3effa31a	0.49929124
142	0x3f067fad	0.5253857
143	0x3e6c4a05	0.23075111
144	0x3f6fd4d2	0.93684113
145	0x4224459a	41.06797
146	0x3f6c166c	0.92221713
147	0x3ec7d561	0.39029983
148	0x3f84089b	1.0315126
149	0x40a77acb	5.2337394
150	0x3da622e6	0.08112125
151	0x3f095b6a	0.5365511
152	0x3f64325f	0.8913936
153	0x3f149410	0.58038425
154	0x3f3e6d88	0.7438588
155	0x3e9d4385	0.30715576
156	0x3f0c835f	0.54887956
157	0xbea0006d	-0.31250325
158	0x3e0cec88	0.13762105
159	0x3f873b11	1.0564901
160	0x421ad826	38.711082
161	0xbd9e4abd	-0.07729099
162	0x3f87ceae	1.0609949
163	0x3f04264b	0.5162093
164	0xbef8d9ef	-0.4860377
165	0x3f419719	0.7562118
166	0xc0285304	-2.6300669
167	0x3df91db7	0.12163871
168	0xbf006ed1	-0.5016909
169	0x406c4287	3.6915605
170	0x3e8e3b39	0.27779558
171	0x4210ef5e	36.233757
172	0xc047f876	-3.1245399
173	0x411a1f5a	9.632654
174	0x420c1d65	35.028706
175	0x3f4a026f	0.78909963
176	0x3f4f6468	0.8101258
177	0xbf1c26e8	-0.60996866
178	0x3f71e8bb	0.94495744
179	0xc0726659	-3.7874968
180	0xbe206683	-0.15664105
181	0xc05e00ad	-3.4687912
182	0xbf3b52c4	-0.73173165
183	0xbeaf0668	-0.34184575
184	0x3ef893ed	0.48550358
185	0xbeff3b2d	-0.49849835
186	0x3f946297	1.1592587
187	0xbf364a51	-0.7120715
188	0x3e3b9dc0	0.18321896
189	0xc01c8949	-2.4458792
190	0xc27749e1	-61.822147
191	0x3e80f733	0.25188598
192	0x4097ecef	4.7476726
193	0xc0a4f5fe	-5.1550283
194	0xc0c3dea9	-6.12093
195	0x3fa85928	1.3152208
196	0xc08064b3	-4.0122924
197	0x4184a5bb	16.580923
198	0xc05afaf5	-3.4215672
199	0x415cfc0c	13.811535
200	0x3f9859d8	1.1902418
201	0xc0946c65	-4.6382318
202	0xc09f665b	-4.9812446
203	0xc0afbd0b	-5.4918265
204	0xc08f9782	-4.4872446
205	0x4096aa10	4.7082596
206	0x4093311c	4.599745
207	0x409b0075	4.843806
208	0xc0b3b6a7	-5.6160464
209	0xc04d7593	-3.2103012
210	0xc0977b1d	-4.7337785
211	0xc0c82aff	-6.2552485
212	0xc09565ac	-4.668661
213	0xc0c6ff12	-6.2186365
214	0x4095203e	4.660186
215	0xc0ad8f7b	-5.4237647
216	0xc096d9a0	-4.7140656
217	0xc0a2ea28	-5.0910835
218	0xc08706fa	-4.2196016
219	0x4094a107	4.6446567
220	0xbe1f3d6c	-0.15550774
221	0x3f8f2c46	1.1185386
222	0x408e0544	4.438143
223	0xc094db58	-4.6517754
224	0xc02454ec	-2.5676832
225	0x3f62930d	0.8850563
226	0xc095a1b4	-4.675989
227	0x409381bb	4.6095862
228	0x40b5e941	5.6847234
229	0xc08a3d20	-4.3199615
230	0x41acbe56	21.592937
231	0x4097f946	4.749179
232	0x40b267ea	5.575185
233	0xc0d47b28	-6.6400337
234	0x3b6bf04d	0.0036001385
235	0xc089e6bf	-4.3094172
236	0x41e46cc1	28.553102
237	0xc0b8cb4b	-5.774816
238	0xbd85de52	-0.06536545
239	0xc0af7f21	-5.4842687
240	0xc08d764a	-4.4206896
241	0x40bca508	5.8951454
242	0xc09a0165	-4.81267
243	0x4216a585	37.66164
244	0x3f8a78cc	1.0818114
245	0x4213cf37	36.95236
246	0x41884733	17.034765
247	0x40a16567	5.043628
248	0xc0ca4e25	-6.322039
249	0x3fd731d4	1.6812081
250	0xc097bf59	-4.742108
251	0x41987355	19.056314
252	0xc0a083e3	-5.0160995
253	0x41b15b66	22.169628
254	0x41c249d6	24.286053
255	0x40953343	4.6625075

fc2.bias f4 [64]
0	0xbf99c699	-1.2013732
1	0x3eefa67b	0.46806702
2	0x3eee479f	0.46539018
3	0x3ec7a9e8	0.38996816
4	0x3f9444f0	1.1583538
5	0x3fe82e61	1.8139154
6	0x3f978266	1.183667
7	0x3fc8d858	1.5691023
8	0x3ec7613e	0.38941377
9	0xbf46bcab	-0.77631634
10	0xbf0f63a4	-0.56011415
11	0x3f86e161	1.053753
12	0xbe92a1ef	-0.2863917
13	0xbf57146a	-0.84015524
14	0xbea9ae6a	-0.3314088
15	0xc00bed8c	-2.1863737
16	0xbf019fa6	-0.5063423
17	0x3f667ee2	0.9003736
18	0x3f2226ab	0.6334025
19	0x3f985866	1.1901977
20	0xbf862d9d	-1.048267
21	0x3f8a7018	1.0815458
22	0x3f618d87	0.8810658
23	0x3fc91537	1.5709599
24	0xbf10a16d	-0.56496316
25	0xbf2a90b7	-0.6662707
26	0x3f50247a	0.8130566
27	0xbf44f399	-0.769342
28	0xbf66c092	-0.9013759
29	0x3f2453d6	0.64190423
30	0xbedb7af9	-0.42867258
31	0xbbe501df	-0.0069887484
32	0xbf594084	-0.8486407
33	0xc033211f	-2.7988966
34	0x3f33e348	0.7026868
35	0xbdbc9e43	-0.092098735
36	0x3f4a30b7	0.7898058
37	0xc02308d1	-2.547413
38	0x3f2800f1	0.65626436
39	0xbd8ecfe1	-0.069732435
40	0x400eaa2a	2.229136
41	0xbf8adffb	-1.0849603
42	0x3ef610bd	0.48059645
43	0x3f2d5ff8	0.6772456
44	0x3f42b957	0.76064056
45	0x3fc0e3a9	1.5069476
46	0xbf927b74	-1.1443925
47	0xbf98e27a	-1.1944115
48	0xbf0260ee	-0.5092915
49	0xbf4d6d60	-0.8024502
50	0x40af51c2	5.47873
51	0x3d5d95fd	0.054098118
52	0xbe48ea4f	-0.19620632
53	0x4044d855	3.0757039
54	0x3f00a8b6	0.5025743
55	0xbf5a8b6c	-0.8536899
56	0x3f7adba8	0.9799142
57	0xbf505458	-0.813787
58	0xbeb8e162	-0.36109453
59	0xc012ee76	-2.2958045
60	0xbfd86c4f	-1.6908053
61	0xc021fe4e	-2.5311465
62	0xbf4a59de	-0.79043376
63	0x3f1c2d81	0.61006933

fc3.weight f4 [1, 64]
0	0xc1254dd6	-10.331503
1	0x410e10c8	8.879097
2	0x411d8d86	9.847052
3	0x40a12d6d	5.036795
4	0xc1133e25	-9.202672
5	0xc1963ee1	-18.780703
6	0x411e0162	9.875338
7	0x410aa186	8.664434
8	0x41462904	12.385014
9	0x4156b655	13.419515
10	0xc1bf1399	-23.88457
11	0x417edff1	15.929673
12	0x409e516e	4.94744
13	0x40740d31	3.8133051
14	0x40bfaded	5.989981
15	0x41ad3df4	21.65525
16	0x4183ec5f	16.490416
17	0xc0c50953	-6.157388
18	0xc1abb6e5	-21.464304
19	0xc1852670	-16.643768
20	0x4077dc83	3.872834
21	0x4120bdd5	10.046346
22	0x4144ba65	12.2955065
23	0xc1b214b1	-22.260103
24	0x40a84dbf	5.2594905
25	0x404147a3	3.0199974
26	0x41aab1d2	21.336826
27	0x3f92473d	1.142799
28	0x40447450	3.0695992
29	0x413c790e	11.779554
30	0x4005ad6f	2.0887105
31	0xc1867019	-16.804735
32	0xc1ec9f3c	-29.577751
33	0x412f2345	10.946111
34	0x4011ba93	2.2770126
35	0x400ff8b3	2.2495544
36	0x4160cfab	14.0507
37	0xc01ca797	-2.4477289
38	0x40005c9f	2.0056531
39	0x4142a258	12.164635
40	0x4151bb2c	13.108196
41	0xc142a197	-12.164451
42	0xc13001da	-11.000452
43	0x41c4626f	24.548063
44	0xc0b210cc	-5.5645504
45	0x41491b4c	12.569164
46	0x41bb46e9	23.409624
47	0x409c9af1	4.8939137
48	0xc12fb1c3	-10.980899
49	0x4125d7e8	10.3652115
50	0x40a6769a	5.2019777
51	0xc0e3b6ac	-7.116049
52	0xc206183b	-33.523663
53	0x40952602	4.6608896
54	0x3ff286b6	1.894736
55	0x41002e8d	8.011365
56	0x410285c5	8.157659
57	0xc11cd6bf	-9.802428
58	0x412ef5c8	10.935005
59	0x412e0709	10.876718
60	0xc1a6e5ef	-20.862272
61	0xc1b303b4	-22.376808
62	0x4096e1ff	4.7150874
63	0xc0e3958b	-7.1120048
