Lab 13/ex1-outputs/model_1000,0.001.pth (torch_old, 18413 bytes, 5 tensors)

fc1.weight f4 [64, 1]
000000 28 e9 1b bf f2 81 05 3f 08 f9 f4 3e 7c c7 00 bf
       -0.60902643 0.52151406 0.47846246 -0.5030439
000010 21 de a2 3f 2e 5c 3c 3f 7a c7 24 bf 95 cf c9 3f
       1.2724038 0.73578155 -0.6436688 1.5766474
000020 ac 3e 03 bf c8 9f fc 3e 96 87 fb 3e b0 78 1b 3f
       -0.51267505 0.49340653 0.4912688 0.6073103
000030 14 8b 03 3f a1 dc 04 bf ce 4f 0a bf d3 d4 12 bf
       0.5138409 -0.51899153 -0.5402802 -0.57355994
000040 aa 9e df 3e 57 0f 30 bf ff ea 02 3f 7e d6 05 3f
       0.4367574 -0.68773407 0.51139826 0.52280414
000050 30 5f 09 3f 88 8c 2b bf 97 ed 19 bf 97 63 f0 3e
       0.5366087 -0.6701131 -0.6012816 0.4695098
000060 dc 9d 08 3f c2 18 bc 3e 2f 1d f9 3e 4f 6d 12 bf
       0.53365874 0.3673764 0.48655078 -0.5719804
000070 b8 d5 e3 bf 05 5c f5 be 7f 0a 1f bf 0e ab 0b 3f
       -1.7799597 -0.47921768 -0.6212539 0.54557884
000080 a8 97 1d bf 0c ad eb be 94 9c 06 3f 6e 20 03 bf
       -0.61559534 -0.46030462 0.5258267 -0.5122136
000090 c5 1d 1f bf 10 8a f6 3e 31 c0 16 3f 64 45 0e bf
       -0.621548 0.48152208 0.5888701 -0.5557463
0000a0 55 cb 23 bf 55 20 47 bf af a1 d7 bf 61 bf 11 bf
       -0.63982135 -0.7778371 -1.6846217 -0.56932646
0000b0 74 84 30 3f 23 c7 11 bf e4 9a 11 bf 34 f9 08 3f
       0.6895211 -0.56944484 -0.5687697 0.53505254
0000c0 d8 7b ff 3e 90 87 21 bf bd 6d 0b 3f d3 a4 18 3f
       0.49899173 -0.63097477 0.5446432 0.596265
0000d0 9e 71 f5 be 2d 9c 16 3f 5b ad f8 3f 81 f3 1e bf
       -0.47938246 0.58832055 1.9427904 -0.6209031
0000e0 6f 41 17 bf f4 40 05 bf 35 6a 12 3f 9d a9 e0 3f
       -0.5908422 -0.52052236 0.5719331 1.7551762
0000f0 7b b3 13 3f 0e e2 0c 3f 0f a8 d0 3e 4d c3 02 bf
       0.5769574 0.5503243 0.4075322 -0.51079255

fc1.bias f4 [64]
000000 c5 e2 e4 bf 64 f6 95 3f 1e b2 56 3f 3e 61 92 bf
       -1.7881705 1.1715817 0.83865535 -1.1435926
000010 ea d2 9d 3e 2c cb 98 bf da 1a 89 3f 61 45 58 bf
       0.30824977 -1.1937003 1.071132 -0.84480864
000020 a1 01 a0 bf 65 ce 70 3f 42 2c 3a be b6 f6 e6 3f
       -1.2500497 0.94064933 -0.18180946 1.804404
000030 2b 90 98 3f 32 34 a0 bf 7a 64 b1 bf bd 59 c9 bf
       1.1918997 -1.2515929 -1.3858788 -1.5730511
000040 c3 38 a2 3f 90 86 c0 3f 80 7d 98 3f b0 34 9e 3f
       1.2673572 1.5041065 1.19133 1.2359829
000050 91 85 b1 3f 91 e9 a6 3f 1e 4f dc bf 7c f2 9d be
       1.3868886 1.3040029 -1.7211645 -0.30849063
000060 f1 21 a3 3f 5b 63 b5 bc 38 f0 3f 3f 34 71 ca bf
       1.2744733 -0.022142103 0.7497592 -1.5815797
000070 70 8d 0e 3f 5a 33 78 bf df c7 ee bf 5c 32 ad 3f
       0.55684566 -0.96953356 -1.8654746 1.3530993
000080 2f ca 77 3f 94 cd 65 bf b2 30 a5 3f 95 22 9b bf
       0.9679288 -0.8976681 1.2905486 -1.2119929
000090 40 b6 e6 bf b0 8e 64 3f 02 d9 b1 bf ba fb bc bf
       -1.8024368 0.89280224 -1.389435 -1.4764321
0000a0 38 e6 f1 bf 5e 2d 8d 3f c4 f5 f6 3d e2 21 b6 3f
       -1.8898382 1.102947 0.12058595 1.422909
0000b0 ee 34 c3 bf 6d 07 9e 3f 18 c3 7d 3f 8c d1 a3 3f
       -1.5250528 1.2346016 0.99125814 1.2798324
0000c0 4e 3d 88 3f 7e a4 ec bf b9 b6 b6 3f 0b 06 ec bf
       1.0643709 -1.8487699 1.4274513 -1.8439344
0000d0 06 63 6c bf 6a 6b dd bf 06 da 0d bf 9a b9 e5 bf
       -0.923386 -1.7298405 -0.554108 -1.7947266
0000e0 27 50 ad 3f cd 05 a1 bf 49 05 cc 3f 10 7d 11 bf
       1.3540086 -1.2579895 1.5939113 -0.56831455
0000f0 81 ac c7 be da da 9c bf 91 e6 f7 be ac e6 96 bf
       -0.38998798 -1.2254288 -0.48418096 -1.1789145

fc2.weight f4 [64, 64]
000000 db 41 1b bf 2b ce 9f 3d 8d fd 83 bc 1c f8 e4 be
       -0.6064736 0.07802995 -0.016112113 -0.44720542
000010 5c 5e 46 be f1 8e 06 bf 6d a2 b7 3e 3b af 0f bf
       -0.19371933 -0.5256186 0.3586611 -0.56126755
000020 96 ba de be 2d de 55 bd b0 56 85 bd 91 ad e0 3d
       -0.4350173 -0.052213836 -0.06510675 0.10970605
000030 b7 90 9a 3e fa 5c a2 be c2 d7 d5 be a7 d3 e7 be
       0.30188534 -0.3171156 -0.41766173 -0.45278665
000040 67 ff db bc cf c7 95 3e 5b cb 79 3e a9 db 80 3d
       -0.026855184 0.29254004 0.2439398 0.06291897
000050 ff 49 b0 3e 37 f7 a4 3e 28 a8 02 bf 47 ae f1 bd
       0.34431455 0.3221986 -0.51037836 -0.11800819
000060 10 5c b9 3e 0d cd 91 bd 8d cc 4b 3e f0 0f 0c bf
       0.3620305 -0.071191885 0.19902249 -0.5471182
000070 87 14 b0 3e 9d 79 73 be b3 80 b4 be 26 89 51 3e
       0.3439066 -0.2377686 -0.3525444 0.20462474
000080 9d 78 9c 3e 80 b1 45 be eb 71 02 3f 51 16 f7 be
       0.3056077 -0.19305992 0.50955075 -0.48259214
000090 27 1e 26 bf 6e ef d0 3d 47 c3 10 bf f5 bf ff be
       -0.6488976 0.102019176 -0.5654797 -0.4995114
0000a0 18 13 15 bf ed 6f eb 3e 42 39 c3 3e 70 cd e9 3e
       -0.5823226 0.4598383 0.38129622 0.4566455
0000b0 99 80 17 bf 59 e1 e4 3e 7f dd 88 3e 77 76 f4 3d
       -0.591806 0.44703177 0.26731488 0.11936658
0000c0 b1 e3 d9 3e 88 b0 01 bf 48 d2 9d 3e 4d ad 07 bf
       0.42556527 -0.5065999 0.30824494 -0.5299881
0000d0 0e c4 a1 be 57 cd e3 be 7a bc 1c bf be e0 10 bf
       -0.3159489 -0.444926 -0.6122509 -0.5659293
0000e0 8b c2 68 3e ff 5b eb be d1 73 14 3f 96 73 da be
       0.22730462 -0.45968625 0.5798922 -0.4266631
0000f0 00 69 e9 bc 83 8e 1f bf 2c 3d b8 bd 16 40 7a be
       -0.02849245 -0.6232683 -0.089960426 -0.2443851
000100 49 67 ea 3e a9 4e 08 be c9 50 55 bc 8c 19 fc 3e
       0.45781925 -0.13311256 -0.013019749 0.4923824
000110 f3 93 d6 3d d6 0a e6 3e cb 0e a8 be 78 a4 19 3f
       0.10477438 0.44930142 -0.32823786 0.60016584
000120 f6 a0 9a 3e 57 f9 d3 bd f1 5d b9 3d 50 cf 54 be
       0.30200928 -0.10350292 0.09051121 -0.20782208
000130 1b df a3 be ad 72 08 3f 23 b3 ea 3e 31 59 02 3f
       -0.32006153 0.5329998 0.45839795 0.50917345
000140 65 3c db bc f2 3b f3 be 41 91 8d be 63 9a 03 be
       -0.026762197 -0.47506672 -0.27649882 -0.12851863
000150 fc 53 80 be 93 a2 05 bf 0e b7 1a 3f 42 34 a1 3d
       -0.25064075 -0.52201194 0.6043557 0.078712955
000160 01 dc c4 be 92 fc 32 3e a7 39 df bd 21 f5 0b 3f
       -0.384491 0.1747916 -0.10899668 0.5467091
000170 d2 e9 cf be 9c 22 8d 3e 29 01 ff 3e d8 d2 c1 be
       -0.40608078 0.27565467 0.49805573 -0.37856174
000180 2e 65 21 be 4a f7 90 3e 95 ea e4 be f8 2a 04 3f
       -0.15761253 0.28313667 -0.44710222 0.51628065
000190 f6 a7 01 3f 8f ec d6 bd 02 55 04 3f b7 d4 c7 3e
       0.50646913 -0.10494339 0.5169221 0.39029476
0001a0 47 aa 31 3f ad 15 ee be 89 2c d6 be 88 69 d8 be
       0.6940045 -0.46500912 -0.41830853 -0.42268014
0001b0 5b e4 eb 3e ce 15 ea be 45 cc 48 be 93 0e 72 3a
       0.4607266 -0.4571976 -0.19609173 0.0009233739
0001c0 cb f2 c1 be d1 d4 fe 3e 90 01 b6 be c9 6b 0a 3f
       -0.3788055 0.4977174 -0.35548067 0.5407072
0001d0 3c dd 85 3e 82 e4 f9 3e 99 17 0d 3f e3 15 0f 3f
       0.2614535 0.4880715 0.5511413 0.5589277
0001e0 39 b8 b4 be 1f 60 a2 3e cc c9 e9 be 80 f3 1b 3f
       -0.352968 0.3171396 -0.4566177 0.60918427
0001f0 bd 53 36 3e 05 51 fa 3e ce f3 40 3e e7 06 dd 3e
       0.17805381 0.48889938 0.18843004 0.4316933
000200 23 bd 01 bf 24 e9 3d 3e e1 48 50 3c 38 9f dc be
       -0.50679225 0.18545967 0.012712688 -0.43090224
000210 b3 04 43 be 5a 31 20 bf 22 35 f3 3e 0c c2 0c bf
       -0.19044761 -0.62575305 0.47501475 -0.5498359
000220 97 c5 a5 be 7e a5 d8 3d 06 1a c2 bd 4d 77 e5 3d
       -0.32377312 0.1057844 -0.0947762 0.112043954
000230 19 f7 d5 3e 2d 1c f1 be 9e 90 0c bf 83 10 06 bf
       0.41790083 -0.4709181 -0.5490817 -0.52368945
000240 39 2b f3 3c 61 97 0e 3f 6d 98 aa 3e 77 98 68 3b
       0.029683696 0.55699736 0.33319417 0.0035491267
000250 b0 38 e3 3e 4f 1f 0e 3f 5c c1 19 bf bc 95 c8 bc
       0.44379187 0.55516523 -0.6006067 -0.024485461
000260 da 30 95 3e ca ba c8 bd c9 d8 0f 3e 98 4a 16 bf
       0.29138833 -0.09801252 0.1404754 -0.5870757
000270 8d 30 e5 3e 0e 63 d9 be a5 54 07 bf b2 9a f2 3e
       0.44763604 -0.42458385 -0.5286353 0.47383648
000280 94 c1 d6 3e c2 74 5d be ea ec f4 3e ee c1 f1 be
       0.41944563 -0.21626571 0.47837 -0.4721827
000290 f8 fe 1c bf cf 9f 38 3e 77 f7 29 bf 7e 71 08 bf
       -0.6132655 0.18029712 -0.66393226 -0.53298175
0002a0 6d f3 17 bf 02 54 b0 3e 4f 72 4b 3e 94 cf 08 3f
       -0.59355813 0.34439093 0.19867824 0.5344174
0002b0 8a 23 24 bf 4d 92 0d 3f 41 a4 5d 3e 6e cb 71 3b
       -0.6411673 0.5530136 0.21644689 0.0036894935
0002c0 6c 60 56 3e 32 1c 18 bf bc 86 b2 3e c8 1a 2c bf
       0.2093522 -0.5941802 0.3486842 -0.67228365
0002d0 41 e8 86 be 14 74 08 bf cd 13 f3 be ed 89 2d bf
       -0.2634907 -0.5330212 -0.47476044 -0.67788583
0002e0 65 b1 b6 3e ac ea 0b bf 4a 23 0d 3f e5 d6 c4 be
       0.35682216 -0.54654956 0.5513197 -0.38445202
0002f0 fe ec 4d be c6 95 05 bf 85 63 59 be ac f6 fa be
       -0.20109937 -0.5218166 -0.2122937 -0.4901632
000300 20 35 24 3f 48 45 81 be bb dc d4 bb 70 e4 fb 3e
       0.6414356 -0.2524817 -0.0064960397 0.4919772
000310 48 fe 58 3d db 9f 1d 3f ba be 00 bf 1d 43 1c 3f
       0.052976876 0.61572045 -0.50291026 0.61039907
000320 4e 98 a0 3e 0d 55 c5 bd f5 35 4d 3e 41 b4 25 be
       0.313662 -0.09635363 0.20040114 -0.16182043
000330 ec fe 8a be 21 9b 0b 3f 0b b6 0a 3f f4 6e 20 3f
       -0.27147615 0.5453358 0.54184026 0.626693
000340 d6 64 3c be bf 45 c0 be 9c e4 f2 be 71 fd 0c be
       -0.18397841 -0.37553212 -0.4744004 -0.13768555
000350 7c e9 b4 be 53 37 cf be 9b 43 01 3f 6f bb 50 3e
       -0.35334384 -0.40471897 0.5049378 0.20384
000360 c6 a9 92 be e9 30 0b bd 61 fb 29 3d 86 53 19 3f
       -0.28645152 -0.03398219 0.0414995 0.5989307
000370 2e 36 a3 be 37 06 a3 3e 7a ff fd 3e ff a1 ab be
       -0.31877273 0.3184068 0.49608976 -0.3352203
000380 cc 95 d5 be 1b 26 28 3e d4 a5 ce be 30 51 e3 3e
       -0.41715848 0.16420786 -0.40360892 0.4439788
000390 04 05 2d 3f 77 36 10 be 27 1a 12 3f db ed d8 3e
       0.6758578 -0.14083277 0.57071155 0.4236897
0003a0 4a d4 1c 3f bf 94 00 bf 60 71 a3 be 8f 9f ea be
       0.6126143 -0.5022697 -0.31922436 -0.4582486
0003b0 6c 33 3b 3f c3 33 0b bf 1f 7d 60 be 7a cc 23 be
       0.7312534 -0.5437586 -0.2192273 -0.1599597
0003c0 98 12 50 be cf cf 0b 3f a8 75 fa be 1b 60 0d 3f
       -0.20319593 0.54613966 -0.4891789 0.5522477
0003d0 a7 f2 9a 3e 51 46 15 3f 49 7b 21 3f 04 b5 06 3f
       0.30263254 0.5831042 0.63078743 0.5261996
0003e0 6f 86 a8 be 21 8f 0a 3f 10 f8 c0 be 73 4c f1 3e
       -0.32915065 0.5412465 -0.37689257 0.4712864
0003f0 22 81 ea 3d 04 3d eb 3e 6c ca 17 3c bc 8e 9e 3e
       0.114504114 0.4594499 0.00926457 0.30968273

fc2.bias f4 [64]
000000 7d 14 27 3d 0e 43 ee 3d b6 a8 c5 3c ee 4a 16 3d
       0.040791024 0.116338834 0.0241283 0.036692552
000010 90 4f 80 bc da d8 51 bd 54 e7 89 3d cf 51 79 bc
       -0.015662938 -0.051232196 0.067335755 -0.015217259
000020 7d d9 70 bc ca 71 aa be 52 2b 8f bd a5 e7 4b 3d
       -0.014700291 -0.3328994 -0.069906846 0.04978146
000030 07 ea 85 bd 3a 3e e2 bc 28 b1 05 be bb 77 4f 3d
       -0.06538778 -0.027617563 -0.13055861 0.050651293
000040 13 b8 8c bd df 22 ff bd 6f 7d 5f be 46 dd a9 bd
       -0.06871047 -0.12457823 -0.21825193 -0.08294158
000050 62 07 42 3d 0a f8 11 3d 71 c5 36 3e f4 1a 6c 3d
       0.047370322 0.03563694 0.17848755 0.057642892
000060 91 8e 36 bd 9c f3 0f be 86 e9 8a 3e 8a 29 2a 3e
       -0.044569556 -0.14057773 0.2713129 0.16617408
000070 5c 5e a0 be 90 b2 8d 3d 56 61 af 3d 12 b2 00 bf
       -0.3132199 0.06918824 0.08563487 -0.50271714
000080 75 35 0f be 8f ff 00 bd 94 34 b9 3d 58 a7 1a be
       -0.13985236 -0.03149372 0.090432316 -0.15102899
000090 92 32 56 3d ed 57 d9 bd c1 d4 05 3e f3 de 2c 3e
       0.05229432 -0.10612474 0.1306944 0.16881923
0000a0 7e f4 47 3c f4 60 c3 bd f9 07 1a 3e f2 9a 01 bc
       0.012204288 -0.09539977 0.15042104 -0.007910477
0000b0 66 a1 08 be 8b 15 4b 3e bf 6e ee be 89 2f b8 3e
       -0.13342819 0.19832437 -0.46568868 0.35973766
0000c0 e2 c3 24 be 0a 01 90 3c aa 8f 9f 3e 31 b2 46 bd
       -0.16090348 0.01757862 0.31164294 -0.04850978
0000d0 04 68 1b be 00 12 2f 3e 86 b5 6a bd 5e 25 eb be
       -0.15176398 0.1709671 -0.05730202 -0.45926946
0000e0 ab c4 79 3d da 23 bd bd 7c 7f 31 3d 7d 1d 4c 3d
       0.060978573 -0.09235354 0.04333447 0.04983281
0000f0 de ec 30 be ed 89 0b be d1 a1 2d 3e 04 03 40 3b
       -0.17277858 -0.13626833 0.1695626 0.0029298672

fc3.weight f4 [1, 64]
000000 34 b0 e5 be 11 7e 30 3f 1d 4d f2 be 63 f5 1a 3f
       -0.44860995 0.6894236 -0.47324458 0.6053068
000010 98 89 b4 be 1e 99 c6 be ac 84 28 3f 57 62 2a 3f
       -0.35261226 -0.38788694 0.6582744 0.66556305
000020 05 2b 1f 3f c2 c6 10 3f e2 07 ad be 10 58 2d 3f
       0.6217502 0.5655328 -0.33795077 0.677125
000030 0a 45 98 be dd 3b e8 be f9 17 ce be 0d 46 29 3f
       -0.29740173 -0.45358172 -0.40252665 0.66122514
000040 1c 7b b3 be 82 83 ab be dc de 8e be e4 da 57 be
       -0.35054862 -0.3349877 -0.27904403 -0.21079594
000050 31 91 24 3f c9 61 1c 3f 3f 5f 1c 3f 45 05 cf be
       0.64284045 0.6108671 0.61082834 -0.40433708
000060 63 83 1b 3f 04 a1 01 3f be ad 03 3f 61 c3 1e 3f
       0.60747355 0.50636315 0.51436985 0.62016875
000070 77 c2 17 3f e7 26 23 3f 7c 89 18 3f 74 07 14 3f
       0.59281105 0.63731235 0.59584785 0.5782387
000080 ea 7a cd be db 36 4a be af b9 29 3f 67 1c ae be
       -0.40132838 -0.19747488 0.66298956 -0.34006044
000090 2b b1 22 3f 9c a5 d8 be 76 1d 20 3f 54 b5 12 3f
       0.63551587 -0.4231385 0.62544954 0.57307935
0000a0 8e 74 23 3f b9 7f b9 be 64 ce 2d 3f 7b c4 14 3f
       0.63849723 -0.36230257 0.6789305 0.58112305
0000b0 59 62 99 be a4 3e 1c 3f 4c de 0f 3f c7 4b 26 3f
       -0.29957846 0.6103308 0.56198573 0.6495938
0000c0 83 3d 99 be eb 21 ef be 54 a3 0e 3f c9 bc a2 be
       -0.29929742 -0.46705565 0.5571797 -0.31784657
0000d0 02 0b 8b be de c3 0c 3f 47 b3 29 3f c6 69 1c 3f
       -0.27156836 0.5498637 0.6628918 0.610989
0000e0 d7 c5 31 3f f2 f7 be be 6e 69 18 3f c1 a5 21 3f
       0.69442505 -0.37298542 0.5953587 0.63143545
0000f0 62 2b c5 bd f7 49 bf be c0 6b 1a 3f 6b 21 20 3f
       -0.09627415 -0.37361118 0.60320663 0.6255099
