Lab 13/ex1-outputs/model_1000,0.01.pth (torch_old, 18413 bytes, 5 tensors)

fc1.weight f4 [64, 1]
000000 8c a3 37 bf bc 59 11 3f 41 bf 91 3f b7 98 a3 bf
       -0.7173393 0.5677755 1.1386491 -1.278098
000010 13 1a f6 3e 2b 93 60 3f 29 7f 3f bf 82 82 65 3f
       0.48066768 0.8772456 -0.74803406 0.89652264
000020 a2 71 d8 bf 4a e7 58 3f b9 ff 07 3f b1 dd 29 3f
       -1.6909678 0.8472792 0.53124577 0.663539
000030 4d 15 16 3f 78 ca 34 bf 71 d9 33 bf 8b 02 3f bf
       0.5862625 -0.7062144 -0.70253664 -0.74613255
000040 cb c1 3b 3f bc 12 42 bf 31 59 17 3f 4d 44 9b 3f
       0.7334258 -0.75809836 0.5912047 1.2130219
000050 7a 2f 1d 3f d0 b4 5b bf 8f 1f 39 bf 9d 2c 78 3f
       0.6140057 -0.8582277 -0.7231378 0.96943074
000060 c2 50 18 3f 74 9b 1f 3f 87 36 03 3f 07 5e 35 bf
       0.59498227 0.6234658 0.5125508 -0.708466
000070 77 45 11 c0 c1 34 d2 bf 99 44 3c bf a7 91 17 3f
       -2.2698648 -1.6422349 -0.7354217 0.5920662
000080 b1 b4 4a bf a2 34 d6 bf 26 97 1d 3f 6c d6 64 bf
       -0.79181963 -1.6734812 0.6155876 -0.8938968
000090 59 21 3f bf ff e3 05 3f b7 b7 56 3f 45 bd 37 bf
       -0.7466026 0.5230102 0.83874077 -0.7177318
0000a0 06 2a 43 bf 55 1b 76 bf 49 95 22 c0 2a 79 53 bf
       -0.76236 -0.96135455 -2.5403616 -0.82606757
0000b0 e5 a4 4e 3f 22 53 60 bf ea 4b ab bf ab 90 1c 3f
       0.8072036 -0.8762685 -1.3382542 0.61158246
0000c0 27 bb 12 3f 70 06 3e bf 76 87 21 3f 7d ce 5a 3f
       0.5731682 -0.7422857 0.6309732 0.85471326
0000d0 ac 96 c3 bf 95 f5 58 3f b8 a0 ac 3f fb 7e 3c bf
       -1.5280356 0.8474973 1.3486547 -0.73631257
0000e0 ba 22 95 3f 59 ad 8a bf 75 86 27 3f 77 67 aa 3f
       1.1651223 -1.0834152 0.6543954 1.3312825
0000f0 9f 42 37 3f 9a 0d 58 3f 4c 71 98 3f 7d 72 38 bf
       0.7158603 0.84395754 1.1909575 -0.72049695

fc1.bias f4 [64]
000000 3e 2a 11 c0 85 f8 d1 3f e9 ba 8d 3f 81 2a dc bf
       -2.2682033 1.6403967 1.1072665 -1.7200471
000010 42 cb 58 3f 2a 0c f1 bf c6 d6 ff 3f f2 7f f1 bf
       0.84685147 -1.8831837 1.9987419 -1.8867171
000020 24 ae 04 c0 01 e7 8e 3f 64 6a b9 3f f6 fa 16 40
       -2.0731287 1.1164247 1.4485593 2.3590674
000030 c3 65 cb 3f de 6b e9 bf 34 27 f5 bf 19 b4 00 c0
       1.589043 -1.8236043 -1.9152589 -2.0109923
000040 64 57 3b 40 d9 3b 12 40 f9 b0 ce 3f de 44 9a 3f
       2.927209 2.2849028 1.6147758 1.2052267
000050 3b fb e1 3f 52 e4 da 3f 0a 39 09 c0 14 83 cb 3e
       1.7654794 1.7100928 -2.1441064 0.39748442
000060 38 77 d6 3f 42 47 78 3f c2 b1 83 3f 59 78 05 c0
       1.6755133 0.9698373 1.0288622 -2.0854704
000070 0e 70 57 3f 32 26 dc bf 61 65 17 c0 8a ba db 3f
       0.84155357 -1.7199156 -2.3655627 1.7166302
000080 21 fe 26 40 16 d5 d9 bf f1 2e d9 3f 8f e5 e1 bf
       2.6092608 -1.7018154 1.696745 -1.7648181
000090 a4 33 11 c0 ee 24 9a 3f 59 b2 0b c0 33 8e fe bf
       -2.268777 1.204252 -2.1827605 -1.9887146
0000a0 c7 3f 16 c0 a4 fa ba 3f 49 76 3e 3f c9 72 03 40
       -2.3476427 1.460774 0.7439924 2.053881
0000b0 6d 34 17 c0 59 f1 e3 3f 36 b6 b6 40 4f 4c fd 3f
       -2.3625748 1.7808028 5.7097425 1.9788913
0000c0 17 a9 c3 3f db 4c 1a c0 06 48 ec 3f 4d 92 2d c0
       1.5285977 -2.410941 1.845948 -2.7120545
0000d0 31 5e c7 bf 3d 9e 23 c0 26 2b 9d bf 92 8f 0e c0
       -1.557562 -2.556533 -1.2278793 -2.2275128
0000e0 f2 05 be 3f 8a 33 e4 bf 6f 18 00 40 5d a8 9c bf
       1.4845564 -1.7828228 2.0014913 -1.223888
0000f0 eb 1c 24 bd 3e a3 05 c0 ad 85 9f c0 92 fc df bf
       -0.04006664 -2.0880885 -4.985068 -1.7498953

fc2.weight f4 [64, 64]
000000 10 aa 41 bf 4a a2 d0 3e 88 08 ec 3e b8 a4 32 bf
       -0.7565012 0.40748817 0.4610026 -0.6978259
000010 94 1b a4 3e 63 21 82 be 29 04 b8 3d 42 f2 81 be
       0.3205229 -0.25416097 0.089851685 -0.2538014
000020 ee 51 39 bf e0 d5 b0 3e 64 8c dd 3e 4d 19 a1 3e
       -0.7239064 0.34538174 0.43271172 0.31464615
000030 1f 3e 06 3f d7 91 01 bf e0 64 18 bf 13 8c 1d bf
       0.5243854 -0.5061316 -0.59528923 -0.6154186
000040 40 14 8b 3e 16 4d 70 3d 63 40 f1 3e 5a 99 d5 3e
       0.27163887 0.058667265 0.47119436 0.4171856
000050 a3 9b 0a 3f 14 e5 a9 3d 8c 56 2a bf 55 a0 c9 3e
       0.5414373 0.08295646 -0.6653831 0.39380136
000060 e3 6b 16 3f 80 e7 d4 3e 2e 2c 16 3f de 27 35 bf
       0.5875837 0.4158287 0.5866116 -0.7076396
000070 d6 27 bc 3d e9 75 06 bf ef 88 02 bf 88 72 cb 3e
       0.091872856 -0.52523667 -0.50990194 0.39735818
000080 6d 6a 3e 3d 90 f8 e9 be 37 f1 3a 3f 42 d3 36 bf
       0.046488214 -0.4569745 0.73024315 -0.71416104
000090 24 8d 46 bf ac 67 d8 3e ff 58 a6 be 98 df 28 bf
       -0.77559114 0.42266595 -0.32489774 -0.65966177
0000a0 0c 13 38 bf 8b 94 5d 3e 5d 15 f0 3d 3a f1 67 3e
       -0.71904063 0.21638696 0.11722825 0.22650614
0000b0 a8 8b c6 be c4 5f 54 3e aa e3 55 3d 71 e6 e1 3e
       -0.38778424 0.20739657 0.05221907 0.44121125
0000c0 44 84 2e 3f d0 72 23 bf 73 3e fe 3e 06 33 b6 be
       0.6817057 -0.63847065 0.4965702 -0.35585803
0000d0 3e 97 18 bf a3 37 85 be 63 d4 56 be 82 79 33 bf
       -0.5960578 -0.2601901 -0.20979457 -0.7010728
0000e0 05 63 d3 3e 2b 80 32 bf 37 61 42 3f 46 da 09 bd
       0.41286483 -0.6972682 0.7592959 -0.033655427
0000f0 52 64 d4 3e 54 1e b8 be ac 60 e6 3c 53 79 e2 be
       0.41482788 -0.3596064 0.028122269 -0.44233188
000100 ae cb 43 3f 91 dd 75 bd 21 c9 a7 3d 22 94 1b 3f
       0.76482666 -0.060025755 0.08192659 0.6077291
000110 c0 14 73 3e 1e a5 5c 3f 22 e8 26 bf 86 97 88 3f
       0.23738384 0.8618945 -0.65197957 1.0671241
000120 d1 ee c1 3e 77 3c 24 3d 1c 94 ed 3d af c7 70 be
       0.37877515 0.040096726 0.11600515 -0.23513673
000130 27 25 98 be e1 18 3d 3f a2 9a 33 3f a9 d4 3f 3f
       -0.29715845 0.7386609 0.70157826 0.7493387
000140 02 63 87 bd d0 58 4d bf 87 00 8f be 87 6b ec 3c
       -0.06610681 -0.8021364 -0.2793009 0.028859867
000150 c2 92 9f be cc a2 6d bf bb d4 61 3f 4e 25 4d 3e
       -0.31166655 -0.92826533 0.88215226 0.20033762
000160 70 ce af be c0 a4 86 3e b9 cb e1 3d c7 f5 54 3f
       -0.34337187 0.2629757 0.11025185 0.83187526
000170 45 b0 2b bf bb e1 8b 3e ee 31 54 3f c9 61 b3 be
       -0.6706584 0.27320656 0.82888687 -0.35035542
000180 b6 44 f1 be f4 1f 33 3e fa 02 fe be c1 c5 36 3f
       -0.47122735 0.17492658 -0.49611646 0.713955
000190 4f c9 38 3f 63 1a df 3d 3a 72 7e 3f ee 3d 1e 3f
       0.7218217 0.10893705 0.99393046 0.6181325
0001a0 6f 6b 6c 3f 80 e3 6a bf 58 22 1b bf bd c4 48 bf
       0.9235143 -0.9175339 -0.6059928 -0.784252
0001b0 c0 4e 5a 3f 22 c7 4d bf 45 ac ae be d1 72 5e bc
       0.8527641 -0.8038198 -0.34115806 -0.013577179
0001c0 14 17 a7 be 04 df 38 3f a6 fa ef be 81 70 85 3f
       -0.32634795 0.72215295 -0.46870917 1.0424958
0001d0 81 aa 86 3e a8 16 7e 3f b8 7d 83 3f 53 c9 4d 3f
       0.2630196 0.9925332 1.0272741 0.8038532
0001e0 bc ab 3b bd 35 1c 03 3f 66 ce 1c bf 33 a6 89 3f
       -0.045818076 0.51214916 -0.6125244 1.0753845
0001f0 46 0b d4 3e 51 da 79 3f 35 0d 33 3f a9 15 15 3f
       0.4141485 0.9759875 0.6994203 0.58236176
000200 b6 2f 2b bf bb 08 f9 3e 93 c5 82 3e 53 c1 dc be
       -0.66869676 0.48639473 0.25541362 -0.43116245
000210 05 a0 07 3e 19 bb ae bf c3 05 5f 3f 89 74 a7 bf
       0.13244636 -1.3650848 0.87118167 -1.3082439
000220 25 4c 98 be e6 87 9f 3e 93 1f af 3e e0 93 cb 3e
       -0.29745594 0.3115837 0.34203777 0.39761257
000230 ed 4c 1d 3f 3f 10 10 bf 75 92 27 bf 9e 48 19 bf
       0.61445504 -0.5627479 -0.6545785 -0.5987643
000240 07 06 d5 3e 82 18 88 3f 2d fd 0a 3f 3e f6 ee 3d
       0.4160616 1.0632479 0.54292566 0.11668061
000250 4a 0a 27 3f 78 93 5d 3f c5 1a 38 bf 67 f7 88 3e
       0.65250075 0.86553144 -0.7191585 0.26751253
000260 e4 a0 ff 3e 83 b6 4e 3e d4 94 bf 3e ce ba 39 bf
       0.49927437 0.2018681 0.37418234 -0.72550666
000270 87 d8 ed 3e 5c fa d2 be dd 8c 38 bf 9a 61 2b 3f
       0.4645426 -0.41206634 -0.7208994 0.66945803
000280 f3 49 6a 3f 90 fd 38 be 89 e2 2f 3f 0c 1d 06 bf
       0.9151909 -0.18065476 0.6870504 -0.5238807
000290 48 58 30 bf a0 b9 bf 3e b1 dd c0 bf d5 46 1d bf
       -0.68884706 0.37446308 -1.5067655 -0.61436206
0002a0 2a b2 2f bf 9f 10 09 3f ca a3 3d 3e 77 45 86 3f
       -0.6863123 0.53540987 0.18519512 1.0489949
0002b0 0b 3d c3 bf 26 4a 7d 3f ee 9a 8f 3f 79 65 b2 3e
       -1.5253004 0.98941267 1.1219156 0.34843042
0002c0 19 65 d9 3e 06 83 33 bf 6c a7 12 3f 4c a2 ca bf
       0.42459944 -0.701218 0.57286716 -1.5830779
0002d0 00 5e 83 be fa 20 b6 bf b1 a0 3e bf e6 17 46 bf
       -0.25657654 -1.4228814 -0.74463946 -0.77380216
0002e0 e3 bb 53 3e 9c 83 11 bf f3 c8 49 3f e4 5e 27 bf
       0.20677142 -0.56841445 0.7882225 -0.65379167
0002f0 d4 9d 97 bd e9 e6 aa bf cc 25 9c bf 4e 01 0d bf
       -0.0740315 -1.3351718 -1.2199035 -0.55080116
000300 7a 00 6c 3f ac be ca bd cf e3 0a 3e 8f b2 2b 3f
       0.9218823 -0.09899649 0.13563465 0.67069334
000310 4f c9 69 3e 37 d0 96 3f 0c 3f 7d bf 47 20 99 3f
       0.228307 1.1782292 -0.98924327 1.1962975
000320 ed 6f 00 3f 2d f1 d4 3d a8 8a 8b 3e 86 2e f7 bd
       0.50170785 0.10397563 0.27254224 -0.120694205
000330 47 58 49 be a1 ab 3e 3f e2 dc 43 3f fe d7 54 3f
       -0.19662581 0.74480635 0.76508915 0.8314208
000340 4a 8b 1b be 1c e5 52 bf 9a a6 d8 be a2 6b a0 3d
       -0.15189853 -0.82380843 -0.42314607 0.07833029
000350 f3 5c be be 32 d2 7c bf 7f fa 3e 3f d7 04 c4 3e
       -0.3718029 -0.9875823 0.74600977 0.38284943
000360 61 ab 46 be a8 82 ea 3d 45 89 b0 3e f3 89 5c 3f
       -0.19401313 0.11450702 0.34479728 0.86147994
000370 8a c5 2c bf b5 09 ea 3e 4b 2f 4f 3f 59 ac 86 be
       -0.6748892 0.4571053 0.8093154 -0.26303366
000380 da 24 60 bf 66 6d 62 3e 64 9e cd be d9 dd 27 3f
       -0.8755623 0.22112045 -0.40159905 0.6557289
000390 9c 05 5a 3f 07 37 1b 3e f8 98 8e 3f 08 2f 20 3f
       0.8516481 0.1515771 1.1140432 0.62571764
0003a0 b5 97 4d 3f e3 51 92 bf 4a 83 10 bf c1 4e 69 bf
       0.8030961 -1.143124 -0.5645033 -0.91135794
0003b0 4a 8b 9d 3f 56 c5 85 bf e9 8c a7 be ac df d7 bd
       1.2308133 -1.0450847 -0.32724693 -0.10540709
0003c0 0c ef be bd 74 89 3c 3f f7 f8 0d bf 63 ce 89 3f
       -0.09322938 0.73647237 -0.55458015 1.0766109
0003d0 17 da de 3e 69 10 8f 3f 88 6c a4 3f b3 ed 3a 3f
       0.43525764 1.1176883 1.2845621 0.7301895
0003e0 56 7e ae 3d 63 65 41 3f 2e b3 f9 be 08 9a 8f 3f
       0.085201904 0.7554533 -0.48769516 1.1218882
0003f0 b2 47 e7 3e cb 23 82 3f a9 9b 2a 3f 74 f7 f0 3e
       0.45171887 1.0167173 0.6664377 0.47063792

fc2.bias f4 [64]
000000 73 75 02 3e b8 5e 97 3d 90 81 1f 3e 5d 54 86 3d
       0.12740116 0.07391113 0.15576768 0.0655906
000010 1f 8c 26 be c6 2f 4d bd c9 f3 8c 3d f9 1b f5 3d
       -0.1626439 -0.05009439 0.06882436 0.11968226
000020 70 e7 8a bc e6 97 f9 be d1 25 bd bd 36 ff 2b bd
       -0.016956061 -0.48748702 -0.092357285 -0.041991435
000030 7e f3 a0 3d bc 23 da 3d f4 42 8b bc eb 95 33 bd
       0.078589424 0.10651347 -0.0169997 -0.043844145
000040 46 ec dc 3b 72 62 4f be 9e fd 66 be d9 cf 1e bd
       0.006742033 -0.20252398 -0.22557685 -0.038772438
000050 1e 7a 2c bf 12 ff 27 3d 56 d4 95 3d 0a 7b ae 3a
       -0.67373836 0.04101474 0.073158905 0.0013311815
000060 9e 63 51 be 44 dc d7 be 3a 97 30 3d a8 9f 96 3b
       -0.20448157 -0.42160237 0.04311297 0.004596669
000070 ae d6 25 bf 9f 78 d6 bc 22 00 1d bd 1d b4 3f bf
       -0.647807 -0.026180563 -0.038330205 -0.74884206
000080 41 5b 38 be 38 01 c8 3c c3 b0 14 3e de ad d9 ba
       -0.1800356 0.024414644 0.14520554 -0.0016607603
000090 82 21 25 bd 39 6f 4b be 0d 16 52 3e 18 32 73 3e
       -0.04031516 -0.19866647 0.20516224 0.23749578
0000a0 99 52 85 bd dc 7c ba 3c 6c 62 bb 3d 1f 0d 19 be
       -0.06509895 0.022764616 0.09149632 -0.14946412
0000b0 29 94 52 be c4 09 2f 3d e0 e5 1a bf 7c 5e e8 be
       -0.20564331 0.042733923 -0.6050701 -0.45384586
0000c0 ea 30 30 be 8c d8 22 bb 75 59 29 3e 53 e7 91 bd
       -0.17206159 -0.002484831 0.16538031 -0.071242
0000d0 1b a4 06 be fd 26 90 3d 4c 9f ac bd 16 65 03 bf
       -0.13148539 0.070386864 -0.08428821 -0.5132612
0000e0 2f fa 98 bc db 71 82 3c 6a 9e fd bd 11 5b f5 3d
       -0.018673984 0.015923431 -0.12383731 0.1198026
0000f0 78 c9 5c be c0 4d 41 be 4e 95 09 bf 6a 6c 35 bd
       -0.21561229 -0.18877316 -0.53743446 -0.044292845

fc3.weight f4 [1, 64]
000000 d4 a5 25 bf dd fb 75 3f 85 7b 68 bf 56 6c 5b 3f
       -0.6470616 0.9608744 -0.90813476 0.8571218
000010 26 25 ca be b5 bf 4c bf c7 34 67 3f 53 f8 81 3f
       -0.39481467 -0.7998002 0.90314907 1.0153908
000020 03 00 62 3f e3 e9 5e 3f c6 bc 3a bd 5e 05 84 3f
       0.8828127 0.8707563 -0.045590185 1.0314138
000030 8c a1 fb be 15 1e 0e bf a1 60 00 bf 83 fe 56 3f
       -0.49146688 -0.5551465 -0.50147444 0.83982104
000040 29 d4 e7 be c2 7a 9a be f7 85 86 bc 70 f1 e9 3e
       -0.45279053 -0.30171782 -0.016421301 0.45692015
000050 d5 58 5f 3f 0f 84 58 3f 9b d8 7a 3f 97 81 bc 3b
       0.8724492 0.84576505 0.97986764 0.005752753
000060 12 19 7e 3f 2d e7 5a 3f 4c 2e f3 3e 48 60 7e 3f
       0.99257004 0.85508996 0.4749626 0.99365664
000070 0f ec 6e 3f 1a 93 7e 3f ff 6b 78 3f 42 d2 64 3f
       0.93328947 0.9944321 0.9703979 0.8938333
000080 af 34 3c bd af ff 33 3e 23 e0 5f 3f e6 00 04 bf
       -0.04594868 0.17578004 0.8745138 -0.5156387
000090 45 14 7d 3f 12 be 59 bf e9 d6 46 3f c2 5d 07 40
       0.98859054 -0.8505565 0.77671677 2.1150975
0000a0 05 07 7e 3f 06 61 11 bf 70 49 80 3f fe 04 77 3f
       0.9922946 -0.5678867 1.0022411 0.9649199
0000b0 3b 2c 89 be b2 9c 7e 3f 31 8e 58 3f 27 61 7a 3f
       -0.26791558 0.9945785 0.84591967 0.9780449
0000c0 c8 96 98 bd 38 28 59 bf db 83 95 3f 32 a1 2c bc
       -0.07450634 -0.84826994 1.1680864 -0.010536479
0000d0 39 a2 10 3d 89 8f a1 3f 89 f6 6c 3f 5a 00 6e 3f
       0.035310958 1.2621928 0.9256368 0.92969286
0000e0 66 d7 83 3f a7 67 27 bf 38 76 7a 3f da ee 4d 3f
       1.0300109 -0.65392536 0.9783664 0.80442584
0000f0 28 31 00 3d aa 3a bc 3a 2f 46 59 3f ed b6 6e 3f
       0.03129688 0.0014360745 0.84872717 0.9324787
