Lab 13/ex1-outputs/model_100,0.01.pth (torch_old, 18413 bytes, 5 tensors)

fc1.weight f4 [64, 1]
000000 be 4d 2a bf 2e 69 09 3f 20 cb 06 3f a2 b9 08 bf
       -0.66524875 0.53676116 0.52653694 -0.53408253
000010 38 19 ea 3e 18 7c 8a 3f b4 87 5b bf 7b 4d 66 3f
       0.45722365 1.081912 -0.8575394 0.89961976
000020 86 5c 0b bf bb 0b fd 3e 2b 60 00 3f 97 24 27 3f
       -0.54438055 0.49423012 0.5014674 0.65290207
000030 1e 21 05 3f 4c 17 10 bf 61 d5 16 bf 8e bf 20 bf
       0.5200366 -0.5628555 -0.5891934 -0.6279229
000040 19 b6 0d 3f ec 60 7b bf 0b 55 06 3f b0 83 00 3f
       0.55355984 -0.98194766 0.52473515 0.5020094
000050 c9 52 0d 3f fb ce 8e bf 16 3e 2b bf ab bf f8 3e
       0.55204445 -1.1156915 -0.6689161 0.4858373
000060 34 03 0d 3f 69 02 f9 3e 9f ac fc 3e de 7a 1e bf
       0.5508301 0.4863465 0.4935045 -0.6190623
000070 9b 7e c3 bf ac 01 ff be ab 95 2c bf a2 27 0d 3f
       -1.5273012 -0.49805963 -0.67415875 0.551386
000080 c5 e2 3f bf 56 89 e8 be 8e 4a 15 3f c5 dc 10 bf
       -0.749554 -0.4541728 0.58316886 -0.5658687
000090 d8 ea 2c bf 02 6d 02 3f 14 8b 50 3f db 89 1b bf
       -0.67545843 0.5094758 0.81462216 -0.60757226
0000a0 d1 9f 34 bf bc 66 96 bf 5a 47 cb bf 32 a5 6c bf
       -0.7055636 -1.1750102 -1.588115 -0.9243957
0000b0 5c 3d 84 3f 89 cd 8b bf 9b 5d 22 be ea 45 13 3f
       1.0331225 -1.0922099 -0.1585602 0.57528555
0000c0 a3 28 03 3f 03 0d 37 bf 36 dc 11 3f c3 91 26 3f
       0.5123388 -0.7150423 0.5697664 0.65066165
0000d0 cc 07 f6 be 39 c9 26 3f 38 de 9a 3f 2d db 29 bf
       -0.48052824 0.6515079 1.2099066 -0.6635006
0000e0 f4 05 07 3f f7 63 10 bf 99 a3 1a 3f 06 50 a0 3f
       0.5274346 -0.56402534 0.6040588 1.2524421
0000f0 8e 99 e4 3e e6 e5 3c 3f 5f ad e6 3d 7a 85 0b bf
       0.44648403 0.737883 0.11263537 -0.54500544

fc1.bias f4 [64]
000000 5d 18 fa bf 90 07 85 3f 3a b8 55 3f 06 e1 a7 bf
       -1.9538685 1.0392933 0.8348423 -1.3115547
000010 e2 db 24 3f d3 7b b3 bf 90 ea 56 3f a1 46 a3 bf
       0.64398015 -1.4022163 0.83951664 -1.2755929
000020 32 af ad bf c1 c0 52 3f be b7 52 3f b4 fd bf 3f
       -1.356909 0.8232537 0.8231162 1.4999299
000030 fe d4 9b 3f d8 95 bd bf 14 1c cc bf 5b 1d d7 bf
       1.2174375 -1.4811354 -1.5946069 -1.6805834
000040 11 5e a5 3f 40 30 bc 3f b8 3a 9f 3f 07 be 5b 3f
       1.2919332 1.4702225 1.2439795 0.85836834
000050 11 64 b4 3f 08 6d a8 3f 4a 62 e9 bf 27 9e 25 3f
       1.4093038 1.3158274 -1.823312 0.64694446
000060 e5 fa 9f 3f 18 8c 2e 3f 0f e6 3a 3f b5 2f e3 bf
       1.2498442 0.68182516 0.7300729 -1.7748934
000070 38 b5 4c 3f 5e 64 8d bf b2 b9 05 c0 b3 a1 a6 3f
       0.7996402 -1.1046255 -2.089459 1.3018097
000080 96 50 38 3f a5 77 64 bf 64 7a ad 3f a7 89 b7 bf
       0.71997964 -0.89245063 1.3552976 -1.4338883
000090 00 f0 eb bf c8 dc 53 3f c1 26 cc bf 9d 57 d0 bf
       -1.8432617 0.8275876 -1.5949327 -1.6276737
0000a0 f8 29 f8 bf ab ce 92 3f 67 ee dc 3e bc 00 bb 3f
       -1.9387808 1.146932 0.43150637 1.4609599
0000b0 1d bd d1 bf b1 48 a3 3f 34 d8 58 3d a3 e1 97 3f
       -1.6385838 1.2756559 0.052940562 1.1865734
0000c0 4c e3 90 3f 9b 01 f9 bf 3b 0a c2 3f 17 ac 04 c0
       1.1319366 -1.9453615 1.5159372 -2.0730035
0000d0 49 fa 87 bf 04 73 fc bf 70 eb 82 bf 86 bc ed bf
       -1.0623256 -1.97226 -1.02281 -1.8573158
0000e0 86 15 62 3f d2 ed b8 bf 79 27 d8 3f c1 1c 81 bf
       0.8831409 -1.4447577 1.6887046 -1.00869
0000f0 62 0b 00 3f d3 02 c0 bf aa 55 0f bf 89 fd af bf
       0.5001737 -1.5000862 -0.5599009 -1.3749248

fc2.weight f4 [64, 64]
000000 12 f7 05 bf d0 41 4c 3e e0 d7 1a 3e e3 c1 bf be
       -0.52330124 0.1994698 0.15121412 -0.3745261
000010 92 b1 08 3e 0f 5e 79 be b2 f6 f8 3d ea 5f 82 be
       0.13348988 -0.24352287 0.121564284 -0.25463802
000020 dc 68 a7 be 39 7b a3 3d fb 10 61 3e 29 5f 1a 3e
       -0.3269719 0.07982487 0.21979134 0.15075363
000030 50 93 9e 3e 19 d8 7f be 47 80 ad be 27 45 a6 be
       0.30971766 -0.24984778 -0.3388693 -0.32474634
000040 03 05 d5 3d e7 83 8a 3d 07 85 82 3e 8b 7f 06 3e
       0.104013465 0.067634396 0.25492117 0.13134591
000050 f1 d5 aa 3e c9 12 d1 3d 5c c0 cb be 1a 31 19 3e
       0.3336635 0.10208661 -0.39795196 0.14960137
000060 18 72 bf 3e 26 32 33 3e be 39 b8 3e d9 07 f1 be
       0.37391734 0.17499599 0.35981554 -0.470763
000070 e3 e4 d1 3d 1a 14 40 be 76 6f 98 be dd 5e 4c 3e
       0.10248735 -0.18757668 -0.29772538 0.19958062
000080 0f db 98 3d c8 b4 0d be df 70 02 3f 66 b7 d4 be
       0.07463657 -0.13838494 0.5095348 -0.41546172
000090 28 f9 fa be 16 3e 4b 3e a6 50 9a be 90 ca c4 be
       -0.49018216 0.19847903 -0.30139655 -0.38435793
0000a0 2f 94 dd be 6b 3b 77 3e 60 eb 0a 3e cf 4f 76 3e
       -0.43277118 0.2414376 0.13566351 0.24053882
0000b0 90 ee af be 1e d9 69 3e a2 62 a8 3d f5 fa 7c 3e
       -0.34361696 0.2283673 0.08221938 0.24705108
0000c0 6d 20 ed 3e 34 9a bb be 17 33 99 3e c5 20 a0 be
       0.463138 -0.36641085 0.2992179 -0.31275
0000d0 86 81 8d be f5 ed 62 be ea 3a 71 be 47 41 d9 be
       -0.2763788 -0.22161086 -0.2355763 -0.42432615
0000e0 6b 08 ee 3d db 78 be be 69 31 11 3f 19 9a 6e bd
       0.11622699 -0.3720158 0.5671602 -0.058252428
0000f0 8c b1 80 3e 43 da b0 be e5 9b e5 3c 4b 22 31 be
       0.25135458 -0.3454152 0.028028438 -0.17298238
000100 9b 08 2e 3f 3d 9d 16 be d2 1f b1 bc ea bd ff 3e
       0.6798188 -0.14708419 -0.021621618 0.4994958
000110 e3 03 ae 3c 86 fc 26 3f 63 fb c2 be d8 32 56 3f
       0.021242088 0.6522907 -0.38082418 0.8367133
000120 aa d9 67 3e 06 e3 90 bd d7 8b b1 bc 13 77 76 be
       0.22641626 -0.07074551 -0.021673126 -0.2406886
000130 17 7c b6 be 2d d6 27 3f 35 8f 1d 3f e2 c1 23 3f
       -0.35641548 0.6556118 0.6154664 0.63967717
000140 dd 23 ab bd 6e 46 24 bf 4a db aa be a0 a3 52 bd
       -0.0835645 -0.6416997 -0.3337043 -0.051425576
000150 1c 25 ad be b8 92 36 bf 60 74 48 3f 5c 6a e2 ba
       -0.33817375 -0.71317625 0.78302574 -0.0017274129
000160 67 26 ca be 24 5f c4 3d 76 b0 91 bd a9 9b 3f 3f
       -0.39482424 0.09588459 -0.071137354 0.74846894
000170 96 08 11 bf c4 81 46 3e 5b 6c 40 3f 07 c2 ca be
       -0.56653726 0.19385439 0.7516534 -0.39601156
000180 25 4b 25 be e4 29 0c 3e ad 5a 07 bf 0e a6 1c 3f
       -0.16141947 0.13687855 -0.52872735 0.6119088
000190 22 32 16 3f 37 f6 27 bd 9c 6e 48 3f 06 74 04 3f
       0.58670247 -0.041006293 0.78293777 0.5173954
0001a0 cd 76 49 3f 92 5b 26 bf a1 a9 ff be 31 f4 21 bf
       0.786969 -0.64983475 -0.49934104 -0.6326323
0001b0 95 3f 25 3f 20 28 29 bf ed 84 cb ba e9 7d 73 bd
       0.64550143 -0.6607685 -0.0015527286 -0.05944625
0001c0 09 3e cf be a6 b9 15 3f e2 ab f7 be 2f 2a 5c 3f
       -0.40477017 0.584864 -0.48373324 0.8600187
0001d0 9e 45 4a 3e f8 e8 4d 3f 4a 30 35 3f dd 32 30 3f
       0.1975312 0.8043361 0.7077681 0.6882761
0001e0 9c 91 ce bd 1d 1e cb 3e 34 c5 1c bf 20 84 41 3f
       -0.100863665 0.39671412 -0.6123841 0.7559223
0001f0 c0 ba 02 3e 3c 0b 42 3f f7 25 54 3d 53 a6 ff 3e
       0.12766552 0.7579839 0.05179402 0.49931583
000200 aa fe f6 be 52 e1 87 3e 0d 33 f6 3d 5c 57 b2 be
       -0.48241168 0.26539093 0.12021456 -0.34832275
000210 29 c7 86 3d 48 be 34 bf f4 5e 93 3e da c7 1e bf
       0.065809555 -0.70602846 0.2878338 -0.620237
000220 8b 9d 59 be 53 19 3d 3e c0 a7 23 3e d0 31 0a 3e
       -0.21251504 0.18466692 0.1598196 0.13495564
000230 26 7f c9 3e 5b 5e d6 be f5 17 ff be 77 f4 de be
       0.3935482 -0.41868863 -0.49822965 -0.43545887
000240 6f 45 d1 3d 07 53 f1 3e e3 d5 a2 3e 54 5c 26 bc
       0.102183215 0.47133657 0.31803808 -0.010153849
000250 96 00 d8 3e 2d c9 f8 3e 5e 22 0a bf 0e cb 46 3e
       0.42187947 0.48590985 -0.5395869 0.19413397
000260 04 28 8b 3e 28 c2 be 3d 8f b9 76 3e 55 8b 0e bf
       0.27178967 0.09314376 0.24094222 -0.55681354
000270 35 e7 b4 3e 67 bc b4 be d3 77 0a bf 56 9e e3 3e
       0.35332647 -0.3529999 -0.5408909 0.44456738
000280 7e 44 53 3e fb a0 12 be 2f 8a e9 3e 92 fd d2 be
       0.20631596 -0.14319222 0.45613238 -0.41209084
000290 79 99 fc be c4 87 57 3e 6d a9 41 bf 30 2b e7 be
       -0.4933584 0.21047884 -0.7564915 -0.45150137
0002a0 a2 f9 f8 be 8b 0c 89 3e 89 80 61 3d bc 03 f8 3e
       -0.48627955 0.26767382 0.05505422 0.4844035
0002b0 9a f1 3a bf cf d8 fb 3e 05 ad bb bc 28 66 dd 3d
       -0.73024905 0.4918885 -0.02290965 0.108105004
0002c0 7d ae 52 3e f9 f7 fa be 1b f1 af 3e c5 a9 47 bf
       0.20574374 -0.49017313 0.34363636 -0.7799342
0002d0 5d e2 4f be 83 df 23 bf 86 f7 fd be af af 15 bf
       -0.20301194 -0.64012927 -0.49602908 -0.58471197
0002e0 9e a9 8f 3d 21 ea ee be 87 f5 0d 3f b7 e2 d2 be
       0.07014774 -0.46663 0.5545277 -0.41188595
0002f0 43 27 2b 3c e0 7d 1a bf cd b6 aa bd 55 7f d7 be
       0.010446372 -0.6034832 -0.08335648 -0.42089334
000300 53 af 4b 3f 1d 76 37 be 61 ff 86 3d 10 2a 00 3f
       0.795644 -0.1791615 0.065916784 0.5006418
000310 05 70 18 bc c9 70 46 3f 46 3c ed be 9c f0 4d 3f
       -0.009304051 0.77515846 -0.46335047 0.80445266
000320 fc 23 84 3e ee 75 1b 3c a6 e9 fa 3d 25 14 cf bd
       0.25808704 0.009488566 0.12251596 -0.10111264
000330 71 fa 70 be e0 b0 21 3f 2d 98 25 3f 15 c9 30 3f
       -0.23533036 0.63160515 0.64685327 0.69056827
000340 c0 81 10 be ed f3 ff be 20 e1 e8 be 29 6d 2d 3d
       -0.14111996 -0.49990788 -0.45484257 0.04234043
000350 b6 d7 be be 72 d5 0f bf 2e c3 1c 3f 63 48 1f 3e
       -0.3727395 -0.56185067 0.6123532 0.15554957
000360 2b 65 67 be 40 18 84 bd 05 47 12 3e 34 37 3d 3f
       -0.22597186 -0.06449938 0.14284904 0.7391236
000370 ed 09 eb be 5f fe 90 3e ae d5 2f 3f fc 8c 92 be
       -0.4590601 0.2831907 0.68685424 -0.28623188
000380 0b 87 a2 be a8 53 b3 3d ab 28 d3 be 04 08 03 3f
       -0.31743655 0.087561905 -0.41241965 0.51184106
000390 50 d7 2e 3f 9a 56 c5 bb fd 33 48 3f b1 0d fc 3e
       0.6829729 -0.0060222866 0.7820433 0.49229196
0003a0 31 9c 21 3f 70 69 27 bf 8b 71 ad be 92 5d 21 bf
       0.63128954 -0.6539526 -0.3387569 -0.630334
0003b0 81 f6 5e 3f ba 65 36 bf a8 3e e4 3d d9 e6 0e be
       0.87094885 -0.7124897 0.11144763 -0.13955249
0003c0 d6 62 1c be 73 1d 10 3f 9f 67 0a bf f7 40 4f 3f
       -0.15272078 0.56294936 -0.54064363 0.80958503
0003d0 fb 92 93 3e 97 81 56 3f a6 e1 40 3f 64 77 14 3f
       0.28823075 0.8379149 0.7534431 0.57994676
0003e0 9c 5b 8d 3d 8a c4 16 3f c9 2a e9 be e3 10 17 3f
       0.06902239 0.58893645 -0.45540455 0.5901014
0003f0 b8 6d aa 3d 11 24 2c 3f 28 29 d7 bd fc 1a b7 3e
       0.083217084 0.6724253 -0.10505897 0.35762775

fc2.bias f4 [64]
000000 f6 9b 12 3e b2 f5 19 3c c3 50 dd 3d 94 31 17 3c
       0.14317307 0.009396957 0.1080642 0.009228129
000010 69 6a 5b 3d 09 f5 32 3c 86 93 ac 3c f1 fe de bd
       0.053568278 0.010922679 0.021066438 -0.1088847
000020 cc d8 e9 bd e3 be 95 be 18 be b3 bd 2e 66 c4 bd
       -0.11418304 -0.29247198 -0.08776492 -0.09589802
000030 a7 6a bd 3d 4d 60 97 3d 08 26 1b bd 9f 50 2e bd
       0.09248858 0.07391415 -0.037878066 -0.042557355
000040 a6 38 54 3d 6a 6a 8e bd 1a 92 64 be 0a 50 9c bc
       0.051811837 -0.069538906 -0.22321358 -0.019081134
000050 3c b8 d8 be ec 05 0b bb 4c ad 1c bb 9a cd 81 3a
       -0.4232806 -0.0021213247 -0.0023907004 0.0009903193
000060 ea 77 68 be 43 cd 53 be 6d 59 63 3d 40 05 27 3c
       -0.22701994 -0.2068377 0.055505205 0.010194123
000070 9d 9c dd be 4d 18 c2 bd e1 9d a0 bd c0 f3 0a bf
       -0.4328355 -0.09477291 -0.07842613 -0.54278183
000080 e5 7f 32 be ca 87 d1 bc 3f 55 91 3d 34 84 f3 bc
       -0.174316 -0.025577445 0.070963375 -0.029726125
000090 76 18 f7 bd ac ce 12 be 20 9a 06 3e b3 50 99 bd
       -0.120652124 -0.14336652 0.13144732 -0.07486095
0000a0 c8 13 22 be 6f a1 8d 3c 27 41 95 3d 65 ec 44 be
       -0.15827858 0.017288892 0.072878174 -0.19230802
0000b0 ad dc 80 bd f5 f1 42 bc 92 47 c8 be 4e f8 64 be
       -0.062920906 -0.011898507 -0.39117104 -0.22360346
0000c0 36 0c 1c be db fe 1e 3d 01 5e a5 3c c6 a5 8d bd
       -0.15239033 0.038817268 0.020186426 -0.069163844
0000d0 68 fe 13 be e4 61 e8 bd 1c 94 09 be 53 17 89 be
       -0.14452517 -0.11346796 -0.13435405 -0.26775607
0000e0 9e e3 ed bc 21 50 47 3d ae ad 25 be 5d 7f 68 3d
       -0.0290392 0.0486604 -0.16179535 0.056762088
0000f0 e6 c3 64 be 27 0f 41 be 1c 07 8c be ea 81 16 bd
       -0.22340354 -0.18853436 -0.27349174 -0.03674499

fc3.weight f4 [1, 64]
000000 7c 57 f0 be 03 49 40 3f 9a e1 1f bf 82 ec 1b 3f
       -0.46941745 0.7511141 -0.62453616 0.6090776
000010 9c a4 04 be 60 88 22 bf d5 45 2c 3f 11 03 32 3f
       -0.12953418 -0.6348934 0.67294055 0.6953593
000020 3a b5 29 3f 53 69 35 3f 3e 90 40 bd 7b 7c 3b 3f
       0.66292155 0.70863837 -0.04701256 0.7323682
000030 d7 16 ac be a2 af b4 be 57 9d a1 be bf 15 15 3f
       -0.33611175 -0.35290247 -0.31565353 0.58236307
000040 b5 8e 48 be d0 a6 b2 bd 79 93 a9 bc 3c 4b fa 3d
       -0.19585688 -0.08723223 -0.020700203 0.12221381
000050 38 d1 2e 3f 3c be 21 3f be 30 2d 3f 14 56 4f 38
       0.6828799 0.631809 0.676525 4.9432812e-05
000060 a1 19 2d 3f 07 14 21 3f 74 b2 1a 3e db 2c 31 3f
       0.6761723 0.62921184 0.15107137 0.6920907
000070 5a ba 49 3f 1a 94 33 3f c8 ba 22 3f bf c4 3e 3f
       0.78799975 0.7014786 0.63566256 0.7451896
000080 8d 33 44 bd 8f 82 03 3d ba 46 2a 3f e0 09 b6 be
       -0.047900725 0.032106932 0.6651417 -0.3555441
000090 4f a2 2e 3f df d5 34 bf f5 29 13 3f 03 96 f1 3e
       0.68216413 -0.7063884 0.57485896 0.47184762
0000a0 af 07 2a 3f 26 cc d4 be e5 45 35 3f 6f af 27 3f
       0.66417974 -0.41562003 0.70809776 0.65502065
0000b0 31 39 a0 bd df d6 24 3f c9 02 21 3f f5 3c 19 3f
       -0.078234084 0.6439037 0.62894875 0.5985864
0000c0 dc 03 72 bd 27 43 2e bf 41 09 84 3e e6 a0 6b bc
       -0.05908571 -0.68071216 0.2578831 -0.014381623
0000d0 c7 fd ca 3c 91 2e 94 3e 10 fa 38 3f cc fc 14 3f
       0.024779214 0.28941777 0.72256565 0.5819824
0000e0 2d 80 43 3f 16 4e 03 bf be d9 28 3f fb 3b 19 3f
       0.76367456 -0.51291025 0.6595725 0.5985715
0000f0 3b 4a aa 3c 5f fc 0a bb fd 99 28 3f 70 f5 22 3f
       0.020787349 -0.0021207554 0.6585997 0.6365576
